2018-10-22 11:21:00,472 - INFO - train_val.py[:75] - build dataloader done
2018-10-22 11:21:00,589 - INFO - train_val.py[:84] - Voxelnet(
  (feature_learnig): feature_learning_network(
    (vfe1): VFE(
      (fcn1): FCN(
        (conv1): Conv2d(4, 16, kernel_size=(1, 1), stride=(1, 1))
        (bn1): BatchNorm2d(16, eps=1e-05, momentum=0.1, affine=True, track_running_stats=True)
        (relu): ReLU(inplace)
      )
    )
    (fcn1): FCN(
      (conv1): Conv2d(32, 128, kernel_size=(1, 1), stride=(1, 1))
      (bn1): BatchNorm2d(128, eps=1e-05, momentum=0.1, affine=True, track_running_stats=True)
      (relu): ReLU(inplace)
    )
  )
  (conv3d): Conv_Middle_layers(
    (conv1): Conv3d(
      (conv1): Conv3d(128, 64, kernel_size=(3, 3, 3), stride=(2, 1, 1), padding=(1, 1, 1))
      (bn1): BatchNorm3d(64, eps=1e-05, momentum=0.1, affine=True, track_running_stats=True)
      (relu): ReLU(inplace)
    )
    (conv2): Conv3d(
      (conv1): Conv3d(64, 64, kernel_size=(3, 3, 3), stride=(1, 1, 1), padding=(1, 1, 1))
      (bn1): BatchNorm3d(64, eps=1e-05, momentum=0.1, affine=True, track_running_stats=True)
      (relu): ReLU(inplace)
    )
    (conv3): Conv3d(
      (conv1): Conv3d(64, 64, kernel_size=(3, 3, 3), stride=(2, 1, 1), padding=(1, 1, 1))
      (bn1): BatchNorm3d(64, eps=1e-05, momentum=0.1, affine=True, track_running_stats=True)
      (relu): ReLU(inplace)
    )
  )
  (_rpn): RPN(
    (conv1_1): Conv2d(
      (conv1): Conv2d(64, 128, kernel_size=(3, 3), stride=(2, 2), padding=(1, 1))
      (bn1): BatchNorm2d(128, eps=1e-05, momentum=0.1, affine=True, track_running_stats=True)
      (relu): ReLU(inplace)
    )
    (conv1_2): Conv2d(
      (conv1): Conv2d(128, 128, kernel_size=(3, 3), stride=(1, 1), padding=(1, 1))
      (bn1): BatchNorm2d(128, eps=1e-05, momentum=0.1, affine=True, track_running_stats=True)
      (relu): ReLU(inplace)
    )
    (conv1_3): Conv2d(
      (conv1): Conv2d(128, 128, kernel_size=(3, 3), stride=(1, 1), padding=(1, 1))
      (bn1): BatchNorm2d(128, eps=1e-05, momentum=0.1, affine=True, track_running_stats=True)
      (relu): ReLU(inplace)
    )
    (conv1_4): Conv2d(
      (conv1): Conv2d(128, 128, kernel_size=(3, 3), stride=(1, 1), padding=(1, 1))
      (bn1): BatchNorm2d(128, eps=1e-05, momentum=0.1, affine=True, track_running_stats=True)
      (relu): ReLU(inplace)
    )
    (conv2_1): Conv2d(
      (conv1): Conv2d(128, 128, kernel_size=(3, 3), stride=(2, 2), padding=(1, 1))
      (bn1): BatchNorm2d(128, eps=1e-05, momentum=0.1, affine=True, track_running_stats=True)
      (relu): ReLU(inplace)
    )
    (conv2_2): Conv2d(
      (conv1): Conv2d(128, 128, kernel_size=(3, 3), stride=(1, 1), padding=(1, 1))
      (bn1): BatchNorm2d(128, eps=1e-05, momentum=0.1, affine=True, track_running_stats=True)
      (relu): ReLU(inplace)
    )
    (conv2_3): Conv2d(
      (conv1): Conv2d(128, 128, kernel_size=(3, 3), stride=(1, 1), padding=(1, 1))
      (bn1): BatchNorm2d(128, eps=1e-05, momentum=0.1, affine=True, track_running_stats=True)
      (relu): ReLU(inplace)
    )
    (conv2_4): Conv2d(
      (conv1): Conv2d(128, 128, kernel_size=(3, 3), stride=(1, 1), padding=(1, 1))
      (bn1): BatchNorm2d(128, eps=1e-05, momentum=0.1, affine=True, track_running_stats=True)
      (relu): ReLU(inplace)
    )
    (conv2_5): Conv2d(
      (conv1): Conv2d(128, 128, kernel_size=(3, 3), stride=(1, 1), padding=(1, 1))
      (bn1): BatchNorm2d(128, eps=1e-05, momentum=0.1, affine=True, track_running_stats=True)
      (relu): ReLU(inplace)
    )
    (conv3_1): Conv2d(
      (conv1): Conv2d(128, 256, kernel_size=(3, 3), stride=(2, 2), padding=(1, 1))
      (bn1): BatchNorm2d(256, eps=1e-05, momentum=0.1, affine=True, track_running_stats=True)
      (relu): ReLU(inplace)
    )
    (conv3_2): Conv2d(
      (conv1): Conv2d(256, 256, kernel_size=(3, 3), stride=(1, 1), padding=(1, 1))
      (bn1): BatchNorm2d(256, eps=1e-05, momentum=0.1, affine=True, track_running_stats=True)
      (relu): ReLU(inplace)
    )
    (conv3_3): Conv2d(
      (conv1): Conv2d(256, 256, kernel_size=(3, 3), stride=(1, 1), padding=(1, 1))
      (bn1): BatchNorm2d(256, eps=1e-05, momentum=0.1, affine=True, track_running_stats=True)
      (relu): ReLU(inplace)
    )
    (conv3_4): Conv2d(
      (conv1): Conv2d(256, 256, kernel_size=(3, 3), stride=(1, 1), padding=(1, 1))
      (bn1): BatchNorm2d(256, eps=1e-05, momentum=0.1, affine=True, track_running_stats=True)
      (relu): ReLU(inplace)
    )
    (conv3_5): Conv2d(
      (conv1): Conv2d(256, 256, kernel_size=(3, 3), stride=(1, 1), padding=(1, 1))
      (bn1): BatchNorm2d(256, eps=1e-05, momentum=0.1, affine=True, track_running_stats=True)
      (relu): ReLU(inplace)
    )
    (deconv1): ConvTranspose2d(256, 256, kernel_size=(4, 4), stride=(4, 4), padding=(0, 1), output_padding=(0, 1))
    (deconv2): ConvTranspose2d(128, 256, kernel_size=(2, 2), stride=(2, 2), padding=(0, 1), output_padding=(0, 1))
    (deconv3): ConvTranspose2d(128, 256, kernel_size=(3, 3), stride=(1, 1), padding=(1, 1))
    (rpn_head): NaiveRpnHead(
      (conv3x3): Conv2d(768, 512, kernel_size=(3, 3), stride=(1, 1), padding=(1, 1))
      (relu3x3): ReLU(inplace)
      (conv_cls): Conv2d(512, 4, kernel_size=(1, 1), stride=(1, 1))
      (conv_loc): Conv2d(512, 14, kernel_size=(1, 1), stride=(1, 1))
    )
  )
)
2018-10-22 11:21:09,168 - INFO - train_val.py[:160] - Epoch: [0][0/2] LR:0.100000 Time: 2.161213 Loss: 0.74378 (rpn_cls: 0.68009 rpn_loc: 0.06369 rpn_acc: 0.60156)
2018-10-22 11:21:09,169 - INFO - log_helper.py[:39] - Progress: -1 / 20 [-5%], Speed: 2.161 s/iter, ETA 0:00:00 (D:H:M)

2018-10-22 11:21:09,272 - INFO - train_val.py[:160] - Epoch: [0][1/2] LR:0.100000 Time: 2.263391 Loss: 0.61310 (rpn_cls: 0.59149 rpn_loc: 0.02161 rpn_acc: 0.99219)
…
