2018-10-18 11:35:16,807 - INFO - train_val.py[:74] - build dataloader done
2018-10-18 11:35:16,896 - INFO - train_val.py[:83] - Voxelnet(
  (feature_learnig): feature_learning_network(
    (vfe1): VFE(
      (fcn1): FCN(
        (conv1): Conv2d(4, 16, kernel_size=(1, 1), stride=(1, 1))
        (bn1): BatchNorm2d(16, eps=1e-05, momentum=0.1, affine=True, track_running_stats=True)
        (relu): ReLU(inplace)
      )
    )
    (fcn1): FCN(
      (conv1): Conv2d(32, 128, kernel_size=(1, 1), stride=(1, 1))
      (bn1): BatchNorm2d(128, eps=1e-05, momentum=0.1, affine=True, track_running_stats=True)
      (relu): ReLU(inplace)
    )
  )
  (conv3d): Conv_Middle_layers(
    (conv1): Conv3d(
      (conv1): Conv3d(128, 64, kernel_size=(3, 3, 3), stride=(2, 1, 1), padding=(1, 1, 1))
      (bn1): BatchNorm3d(64, eps=1e-05, momentum=0.1, affine=True, track_running_stats=True)
      (relu): ReLU(inplace)
    )
    (conv2): Conv3d(
      (conv1): Conv3d(64, 64, kernel_size=(3, 3, 3), stride=(1, 1, 1), padding=(1, 1, 1))
      (bn1): BatchNorm3d(64, eps=1e-05, momentum=0.1, affine=True, track_running_stats=True)
      (relu): ReLU(inplace)
    )
    (conv3): Conv3d(
      (conv1): Conv3d(64, 64, kernel_size=(3, 3, 3), stride=(2, 1, 1), padding=(1, 1, 1))
      (bn1): BatchNorm3d(64, eps=1e-05, momentum=0.1, affine=True, track_running_stats=True)
      (relu): ReLU(inplace)
    )
  )
  (_rpn): RPN(
    (conv1_1): Conv2d(
      (conv1): Conv2d(64, 128, kernel_size=(3, 3), stride=(2, 2), padding=(1, 1))
      (bn1): BatchNorm2d(128, eps=1e-05, momentum=0.1, affine=True, track_running_stats=True)
      (relu): ReLU(inplace)
    )
    (conv1_2): Conv2d(
      (conv1): Conv2d(128, 128, kernel_size=(3, 3), stride=(1, 1), padding=(1, 1))
      (bn1): BatchNorm2d(128, eps=1e-05, momentum=0.1, affine=True, track_running_stats=True)
      (relu): ReLU(inplace)
    )
    (conv1_3): Conv2d(
      (conv1): Conv2d(128, 128, kernel_size=(3, 3), stride=(1, 1), padding=(1, 1))
      (bn1): BatchNorm2d(128, eps=1e-05, momentum=0.1, affine=True, track_running_stats=True)
      (relu): ReLU(inplace)
    )
    (conv1_4): Conv2d(
      (conv1): Conv2d(128, 128, kernel_size=(3, 3), stride=(1, 1), padding=(1, 1))
      (bn1): BatchNorm2d(128, eps=1e-05, momentum=0.1, affine=True, track_running_stats=True)
      (relu): ReLU(inplace)
    )
    (conv2_1): Conv2d(
      (conv1): Conv2d(128, 128, kernel_size=(3, 3), stride=(2, 2), padding=(1, 1))
      (bn1): BatchNorm2d(128, eps=1e-05, momentum=0.1, affine=True, track_running_stats=True)
      (relu): ReLU(inplace)
    )
    (conv2_2): Conv2d(
      (conv1): Conv2d(128, 128, kernel_size=(3, 3), stride=(1, 1), padding=(1, 1))
      (bn1): BatchNorm2d(128, eps=1e-05, momentum=0.1, affine=True, track_running_stats=True)
      (relu): ReLU(inplace)
    )
    (conv2_3): Conv2d(
      (conv1): Conv2d(128, 128, kernel_size=(3, 3), stride=(1, 1), padding=(1, 1))
      (bn1): BatchNorm2d(128, eps=1e-05, momentum=0.1, affine=True, track_running_stats=True)
      (relu): ReLU(inplace)
    )
    (conv2_4): Conv2d(
      (conv1): Conv2d(128, 128, kernel_size=(3, 3), stride=(1, 1), padding=(1, 1))
      (bn1): BatchNorm2d(128, eps=1e-05, momentum=0.1, affine=True, track_running_stats=True)
      (relu): ReLU(inplace)
    )
    (conv2_5): Conv2d(
      (conv1): Conv2d(128, 128, kernel_size=(3, 3), stride=(1, 1), padding=(1, 1))
      (bn1): BatchNorm2d(128, eps=1e-05, momentum=0.1, affine=True, track_running_stats=True)
      (relu): ReLU(inplace)
    )
    (conv3_1): Conv2d(
      (conv1): Conv2d(128, 256, kernel_size=(3, 3), stride=(2, 2), padding=(1, 1))
      (bn1): BatchNorm2d(256, eps=1e-05, momentum=0.1, affine=True, track_running_stats=True)
      (relu): ReLU(inplace)
    )
    (conv3_2): Conv2d(
      (conv1): Conv2d(256, 256, kernel_size=(3, 3), stride=(1, 1), padding=(1, 1))
      (bn1): BatchNorm2d(256, eps=1e-05, momentum=0.1, affine=True, track_running_stats=True)
      (relu): ReLU(inplace)
    )
    (conv3_3): Conv2d(
      (conv1): Conv2d(256, 256, kernel_size=(3, 3), stride=(1, 1), padding=(1, 1))
      (bn1): BatchNorm2d(256, eps=1e-05, momentum=0.1, affine=True, track_running_stats=True)
      (relu): ReLU(inplace)
    )
    (conv3_4): Conv2d(
      (conv1): Conv2d(256, 256, kernel_size=(3, 3), stride=(1, 1), padding=(1, 1))
      (bn1): BatchNorm2d(256, eps=1e-05, momentum=0.1, affine=True, track_running_stats=True)
      (relu): ReLU(inplace)
    )
    (conv3_5): Conv2d(
      (conv1): Conv2d(256, 256, kernel_size=(3, 3), stride=(1, 1), padding=(1, 1))
      (bn1): BatchNorm2d(256, eps=1e-05, momentum=0.1, affine=True, track_running_stats=True)
      (relu): ReLU(inplace)
    )
    (deconv1): ConvTranspose2d(256, 256, kernel_size=(4, 4), stride=(4, 4), padding=(0, 1), output_padding=(0, 1))
    (deconv2): ConvTranspose2d(128, 256, kernel_size=(2, 2), stride=(2, 2), padding=(0, 1), output_padding=(0, 1))
    (deconv3): ConvTranspose2d(128, 256, kernel_size=(3, 3), stride=(1, 1), padding=(1, 1))
    (rpn_head): NaiveRpnHead(
      (conv3x3): Conv2d(768, 512, kernel_size=(3, 3), stride=(1, 1), padding=(1, 1))
      (relu3x3): ReLU(inplace)
      (conv_cls): Conv2d(512, 4, kernel_size=(1, 1), stride=(1, 1))
      (conv_loc): Conv2d(512, 14, kernel_size=(1, 1), stride=(1, 1))
    )
  )
)
2018-10-18 11:35:47,704 - INFO - train_val.py[:74] - build dataloader done
2018-10-18 11:35:47,785 - INFO - train_val.py[:83] - Voxelnet(
  (feature_learnig): feature_learning_network(
    (vfe1): VFE(
      (fcn1): FCN(
        (conv1): Conv2d(4, 16, kernel_size=(1, 1), stride=(1, 1))
        (bn1): BatchNorm2d(16, eps=1e-05, momentum=0.1, affine=True, track_running_stats=True)
        (relu): ReLU(inplace)
      )
    )
    (fcn1): FCN(
      (conv1): Conv2d(32, 128, kernel_size=(1, 1), stride=(1, 1))
      (bn1): BatchNorm2d(128, eps=1e-05, momentum=0.1, affine=True, track_running_stats=True)
      (relu): ReLU(inplace)
    )
  )
  (conv3d): Conv_Middle_layers(
    (conv1): Conv3d(
      (conv1): Conv3d(128, 64, kernel_size=(3, 3, 3), stride=(2, 1, 1), padding=(1, 1, 1))
      (bn1): BatchNorm3d(64, eps=1e-05, momentum=0.1, affine=True, track_running_stats=True)
      (relu): ReLU(inplace)
    )
    (conv2): Conv3d(
      (conv1): Conv3d(64, 64, kernel_size=(3, 3, 3), stride=(1, 1, 1), padding=(1, 1, 1))
      (bn1): BatchNorm3d(64, eps=1e-05, momentum=0.1, affine=True, track_running_stats=True)
      (relu): ReLU(inplace)
    )
    (conv3): Conv3d(
      (conv1): Conv3d(64, 64, kernel_size=(3, 3, 3), stride=(2, 1, 1), padding=(1, 1, 1))
      (bn1): BatchNorm3d(64, eps=1e-05, momentum=0.1, affine=True, track_running_stats=True)
      (relu): ReLU(inplace)
    )
  )
  (_rpn): RPN(
    (conv1_1): Conv2d(
      (conv1): Conv2d(64, 128, kernel_size=(3, 3), stride=(2, 2), padding=(1, 1))
      (bn1): BatchNorm2d(128, eps=1e-05, momentum=0.1, affine=True, track_running_stats=True)
      (relu): ReLU(inplace)
    )
    (conv1_2): Conv2d(
      (conv1): Conv2d(128, 128, kernel_size=(3, 3), stride=(1, 1), padding=(1, 1))
      (bn1): BatchNorm2d(128, eps=1e-05, momentum=0.1, affine=True, track_running_stats=True)
      (relu): ReLU(inplace)
    )
    (conv1_3): Conv2d(
      (conv1): Conv2d(128, 128, kernel_size=(3, 3), stride=(1, 1), padding=(1, 1))
      (bn1): BatchNorm2d(128, eps=1e-05, momentum=0.1, affine=True, track_running_stats=True)
      (relu): ReLU(inplace)
    )
    (conv1_4): Conv2d(
      (conv1): Conv2d(128, 128, kernel_size=(3, 3), stride=(1, 1), padding=(1, 1))
      (bn1): BatchNorm2d(128, eps=1e-05, momentum=0.1, affine=True, track_running_stats=True)
      (relu): ReLU(inplace)
    )
    (conv2_1): Conv2d(
      (conv1): Conv2d(128, 128, kernel_size=(3, 3), stride=(2, 2), padding=(1, 1))
      (bn1): BatchNorm2d(128, eps=1e-05, momentum=0.1, affine=True, track_running_stats=True)
      (relu): ReLU(inplace)
    )
    (conv2_2): Conv2d(
      (conv1): Conv2d(128, 128, kernel_size=(3, 3), stride=(1, 1), padding=(1, 1))
      (bn1): BatchNorm2d(128, eps=1e-05, momentum=0.1, affine=True, track_running_stats=True)
      (relu): ReLU(inplace)
    )
    (conv2_3): Conv2d(
      (conv1): Conv2d(128, 128, kernel_size=(3, 3), stride=(1, 1), padding=(1, 1))
      (bn1): BatchNorm2d(128, eps=1e-05, momentum=0.1, affine=True, track_running_stats=True)
      (relu): ReLU(inplace)
    )
    (conv2_4): Conv2d(
      (conv1): Conv2d(128, 128, kernel_size=(3, 3), stride=(1, 1), padding=(1, 1))
      (bn1): BatchNorm2d(128, eps=1e-05, momentum=0.1, affine=True, track_running_stats=True)
      (relu): ReLU(inplace)
    )
    (conv2_5): Conv2d(
      (conv1): Conv2d(128, 128, kernel_size=(3, 3), stride=(1, 1), padding=(1, 1))
      (bn1): BatchNorm2d(128, eps=1e-05, momentum=0.1, affine=True, track_running_stats=True)
      (relu): ReLU(inplace)
    )
    (conv3_1): Conv2d(
      (conv1): Conv2d(128, 256, kernel_size=(3, 3), stride=(2, 2), padding=(1, 1))
      (bn1): BatchNorm2d(256, eps=1e-05, momentum=0.1, affine=True, track_running_stats=True)
      (relu): ReLU(inplace)
    )
    (conv3_2): Conv2d(
      (conv1): Conv2d(256, 256, kernel_size=(3, 3), stride=(1, 1), padding=(1, 1))
      (bn1): BatchNorm2d(256, eps=1e-05, momentum=0.1, affine=True, track_running_stats=True)
      (relu): ReLU(inplace)
    )
    (conv3_3): Conv2d(
      (conv1): Conv2d(256, 256, kernel_size=(3, 3), stride=(1, 1), padding=(1, 1))
      (bn1): BatchNorm2d(256, eps=1e-05, momentum=0.1, affine=True, track_running_stats=True)
      (relu): ReLU(inplace)
    )
    (conv3_4): Conv2d(
      (conv1): Conv2d(256, 256, kernel_size=(3, 3), stride=(1, 1), padding=(1, 1))
      (bn1): BatchNorm2d(256, eps=1e-05, momentum=0.1, affine=True, track_running_stats=True)
      (relu): ReLU(inplace)
    )
    (conv3_5): Conv2d(
      (conv1): Conv2d(256, 256, kernel_size=(3, 3), stride=(1, 1), padding=(1, 1))
      (bn1): BatchNorm2d(256, eps=1e-05, momentum=0.1, affine=True, track_running_stats=True)
      (relu): ReLU(inplace)
    )
    (deconv1): ConvTranspose2d(256, 256, kernel_size=(4, 4), stride=(4, 4), padding=(0, 1), output_padding=(0, 1))
    (deconv2): ConvTranspose2d(128, 256, kernel_size=(2, 2), stride=(2, 2), padding=(0, 1), output_padding=(0, 1))
    (deconv3): ConvTranspose2d(128, 256, kernel_size=(3, 3), stride=(1, 1), padding=(1, 1))
    (rpn_head): NaiveRpnHead(
      (conv3x3): Conv2d(768, 512, kernel_size=(3, 3), stride=(1, 1), padding=(1, 1))
      (relu3x3): ReLU(inplace)
      (conv_cls): Conv2d(512, 4, kernel_size=(1, 1), stride=(1, 1))
      (conv_loc): Conv2d(512, 14, kernel_size=(1, 1), stride=(1, 1))
    )
  )
)
2018-10-18 11:35:47,787 - INFO - load_helper.py[:39] - restore from /home/yc/Myprojects/voxelnet_yc/voxelnet/experiments/save/checkpoint_e10.pth
2018-10-18 11:35:52,228 - INFO - load_helper.py[:11] - missing keys:0
2018-10-18 11:35:52,230 - INFO - load_helper.py[:12] - unused checkpoint keys:0
2018-10-18 11:35:52,231 - INFO - load_helper.py[:13] - used keys:145
…
2018-10-18 11:35:56,379 - INFO - log_helper.py[:39] - Progress: 4 / 5 [80%], Speed: 0.041 s/iter, ETA 0:00:00 (D:H:M)

2018-10-18 11:35:56,448 - INFO - train_val.py[:198] - Test: [4/5] Time: 0.040 11/14
2018-10-18 11:35:56,449 - INFO - log_helper.py[:39] - Progress: 5 / 5 [100%], Speed: 0.040 s/iter, ETA 0:00:00 (D:H:M)

2018-10-18 11:35:56,449 - INFO - train_val.py[:200] - rpn300 recall=0.785714
2018-10-18 11:50:34,198 - INFO - train_val.py[:74] - build dataloader done
2018-10-18 11:50:34,302 - INFO - train_val.py[:83] - Voxelnet(
  (feature_learnig): feature_learning_network(
    (vfe1): VFE(
      (fcn1): FCN(
        (conv1): Conv2d(4, 16, kernel_size=(1, 1), stride=(1, 1))
        (bn1): BatchNorm2d(16, eps=1e-05, momentum=0.1, affine=True, track_running_stats=True)
        (relu): ReLU(inplace)
      )
    )
    (fcn1): FCN(
      (conv1): Conv2d(32, 128, kernel_size=(1, 1), stride=(1, 1))
      (bn1): BatchNorm2d(128, eps=1e-05, momentum=0.1, affine=True, track_running_stats=True)
      (relu): ReLU(inplace)
    )
  )
  (conv3d): Conv_Middle_layers(
    (conv1): Conv3d(
      (conv1): Conv3d(128, 64, kernel_size=(3, 3, 3), stride=(2, 1, 1), padding=(1, 1, 1))
      (bn1): BatchNorm3d(64, eps=1e-05, momentum=0.1, affine=True, track_running_stats=True)
      (relu): ReLU(inplace)
    )
    (conv2): Conv3d(
      (conv1): Conv3d(64, 64, kernel_size=(3, 3, 3), stride=(1, 1, 1), padding=(1, 1, 1))
      (bn1): BatchNorm3d(64, eps=1e-05, momentum=0.1, affine=True, track_running_stats=True)
      (relu): ReLU(inplace)
    )
    (conv3): Conv3d(
      (conv1): Conv3d(64, 64, kernel_size=(3, 3, 3), stride=(2, 1, 1), padding=(1, 1, 1))
      (bn1): BatchNorm3d(64, eps=1e-05, momentum=0.1, affine=True, track_running_stats=True)
      (relu): ReLU(inplace)
    )
  )
  (_rpn): RPN(
    (conv1_1): Conv2d(
      (conv1): Conv2d(64, 128, kernel_size=(3, 3), stride=(2, 2), padding=(1, 1))
      (bn1): BatchNorm2d(128, eps=1e-05, momentum=0.1, affine=True, track_running_stats=True)
      (relu): ReLU(inplace)
    )
    (conv1_2): Conv2d(
      (conv1): Conv2d(128, 128, kernel_size=(3, 3), stride=(1, 1), padding=(1, 1))
      (bn1): BatchNorm2d(128, eps=1e-05, momentum=0.1, affine=True, track_running_stats=True)
      (relu): ReLU(inplace)
    )
    (conv1_3): Conv2d(
      (conv1): Conv2d(128, 128, kernel_size=(3, 3), stride=(1, 1), padding=(1, 1))
      (bn1): BatchNorm2d(128, eps=1e-05, momentum=0.1, affine=True, track_running_stats=True)
      (relu): ReLU(inplace)
    )
    (conv1_4): Conv2d(
      (conv1): Conv2d(128, 128, kernel_size=(3, 3), stride=(1, 1), padding=(1, 1))
      (bn1): BatchNorm2d(128, eps=1e-05, momentum=0.1, affine=True, track_running_stats=True)
      (relu): ReLU(inplace)
    )
    (conv2_1): Conv2d(
      (conv1): Conv2d(128, 128, kernel_size=(3, 3), stride=(2, 2), padding=(1, 1))
      (bn1): BatchNorm2d(128, eps=1e-05, momentum=0.1, affine=True, track_running_stats=True)
      (relu): ReLU(inplace)
    )
    (conv2_2): Conv2d(
      (conv1): Conv2d(128, 128, kernel_size=(3, 3), stride=(1, 1), padding=(1, 1))
      (bn1): BatchNorm2d(128, eps=1e-05, momentum=0.1, affine=True, track_running_stats=True)
      (relu): ReLU(inplace)
    )
    (conv2_3): Conv2d(
      (conv1): Conv2d(128, 128, kernel_size=(3, 3), stride=(1, 1), padding=(1, 1))
      (bn1): BatchNorm2d(128, eps=1e-05, momentum=0.1, affine=True, track_running_stats=True)
      (relu): ReLU(inplace)
    )
    (conv2_4): Conv2d(
      (conv1): Conv2d(128, 128, kernel_size=(3, 3), stride=(1, 1), padding=(1, 1))
      (bn1): BatchNorm2d(128, eps=1e-05, momentum=0.1, affine=True, track_running_stats=True)
      (relu): ReLU(inplace)
    )
    (conv2_5): Conv2d(
      (conv1): Conv2d(128, 128, kernel_size=(3, 3), stride=(1, 1), padding=(1, 1))
      (bn1): BatchNorm2d(128, eps=1e-05, momentum=0.1, affine=True, track_running_stats=True)
      (relu): ReLU(inplace)
    )
    (conv3_1): Conv2d(
      (conv1): Conv2d(128, 256, kernel_size=(3, 3), stride=(2, 2), padding=(1, 1))
      (bn1): BatchNorm2d(256, eps=1e-05, momentum=0.1, affine=True, track_running_stats=True)
      (relu): ReLU(inplace)
    )
    (conv3_2): Conv2d(
      (conv1): Conv2d(256, 256, kernel_size=(3, 3), stride=(1, 1), padding=(1, 1))
      (bn1): BatchNorm2d(256, eps=1e-05, momentum=0.1, affine=True, track_running_stats=True)
      (relu): ReLU(inplace)
    )
    (conv3_3): Conv2d(
      (conv1): Conv2d(256, 256, kernel_size=(3, 3), stride=(1, 1), padding=(1, 1))
      (bn1): BatchNorm2d(256, eps=1e-05, momentum=0.1, affine=True, track_running_stats=True)
      (relu): ReLU(inplace)
    )
    (conv3_4): Conv2d(
      (conv1): Conv2d(256, 256, kernel_size=(3, 3), stride=(1, 1), padding=(1, 1))
      (bn1): BatchNorm2d(256, eps=1e-05, momentum=0.1, affine=True, track_running_stats=True)
      (relu): ReLU(inplace)
    )
    (conv3_5): Conv2d(
      (conv1): Conv2d(256, 256, kernel_size=(3, 3), stride=(1, 1), padding=(1, 1))
      (bn1): BatchNorm2d(256, eps=1e-05, momentum=0.1, affine=True, track_running_stats=True)
      (relu): ReLU(inplace)
    )
    (deconv1): ConvTranspose2d(256, 256, kernel_size=(4, 4), stride=(4, 4), padding=(0, 1), output_padding=(0, 1))
    (deconv2): ConvTranspose2d(128, 256, kernel_size=(2, 2), stride=(2, 2), padding=(0, 1), output_padding=(0, 1))
    (deconv3): ConvTranspose2d(128, 256, kernel_size=(3, 3), stride=(1, 1), padding=(1, 1))
    (rpn_head): NaiveRpnHead(
      (conv3x3): Conv2d(768, 512, kernel_size=(3, 3), stride=(1, 1), padding=(1, 1))
      (relu3x3): ReLU(inplace)
      (conv_cls): Conv2d(512, 4, kernel_size=(1, 1), stride=(1, 1))
      (conv_loc): Conv2d(512, 14, kernel_size=(1, 1), stride=(1, 1))
    )
  )
)
2018-10-18 11:50:34,303 - INFO - load_helper.py[:39] - restore from /home/yc/Myprojects/voxelnet_yc/voxelnet/experiments/save/checkpoint_e10.pth
2018-10-18 11:50:36,812 - INFO - load_helper.py[:11] - missing keys:0
2018-10-18 11:50:36,813 - INFO - load_helper.py[:12] - unused checkpoint keys:0
2018-10-18 11:50:36,813 - INFO - load_helper.py[:13] - used keys:145
2018-10-18 11:50:36,905 - INFO - train_val.py[:167] - start validate
2018-10-18 11:51:01,600 - INFO - train_val.py[:75] - build dataloader done
2018-10-18 11:51:01,679 - INFO - train_val.py[:84] - Voxelnet(
  (feature_learnig): feature_learning_network(
    (vfe1): VFE(
      (fcn1): FCN(
        (conv1): Conv2d(4, 16, kernel_size=(1, 1), stride=(1, 1))
        (bn1): BatchNorm2d(16, eps=1e-05, momentum=0.1, affine=True, track_running_stats=True)
        (relu): ReLU(inplace)
      )
    )
    (fcn1): FCN(
      (conv1): Conv2d(32, 128, kernel_size=(1, 1), stride=(1, 1))
      (bn1): BatchNorm2d(128, eps=1e-05, momentum=0.1, affine=True, track_running_stats=True)
      (relu): ReLU(inplace)
    )
  )
  (conv3d): Conv_Middle_layers(
    (conv1): Conv3d(
      (conv1): Conv3d(128, 64, kernel_size=(3, 3, 3), stride=(2, 1, 1), padding=(1, 1, 1))
      (bn1): BatchNorm3d(64, eps=1e-05, momentum=0.1, affine=True, track_running_stats=True)
      (relu): ReLU(inplace)
    )
    (conv2): Conv3d(
      (conv1): Conv3d(64, 64, kernel_size=(3, 3, 3), stride=(1, 1, 1), padding=(1, 1, 1))
      (bn1): BatchNorm3d(64, eps=1e-05, momentum=0.1, affine=True, track_running_stats=True)
      (relu): ReLU(inplace)
    )
    (conv3): Conv3d(
      (conv1): Conv3d(64, 64, kernel_size=(3, 3, 3), stride=(2, 1, 1), padding=(1, 1, 1))
      (bn1): BatchNorm3d(64, eps=1e-05, momentum=0.1, affine=True, track_running_stats=True)
      (relu): ReLU(inplace)
    )
  )
  (_rpn): RPN(
    (conv1_1): Conv2d(
      (conv1): Conv2d(64, 128, kernel_size=(3, 3), stride=(2, 2), padding=(1, 1))
      (bn1): BatchNorm2d(128, eps=1e-05, momentum=0.1, affine=True, track_running_stats=True)
      (relu): ReLU(inplace)
    )
    (conv1_2): Conv2d(
      (conv1): Conv2d(128, 128, kernel_size=(3, 3), stride=(1, 1), padding=(1, 1))
      (bn1): BatchNorm2d(128, eps=1e-05, momentum=0.1, affine=True, track_running_stats=True)
      (relu): ReLU(inplace)
    )
    (conv1_3): Conv2d(
      (conv1): Conv2d(128, 128, kernel_size=(3, 3), stride=(1, 1), padding=(1, 1))
      (bn1): BatchNorm2d(128, eps=1e-05, momentum=0.1, affine=True, track_running_stats=True)
      (relu): ReLU(inplace)
    )
    (conv1_4): Conv2d(
      (conv1): Conv2d(128, 128, kernel_size=(3, 3), stride=(1, 1), padding=(1, 1))
      (bn1): BatchNorm2d(128, eps=1e-05, momentum=0.1, affine=True, track_running_stats=True)
      (relu): ReLU(inplace)
    )
    (conv2_1): Conv2d(
      (conv1): Conv2d(128, 128, kernel_size=(3, 3), stride=(2, 2), padding=(1, 1))
      (bn1): BatchNorm2d(128, eps=1e-05, momentum=0.1, affine=True, track_running_stats=True)
      (relu): ReLU(inplace)
    )
    (conv2_2): Conv2d(
      (conv1): Conv2d(128, 128, kernel_size=(3, 3), stride=(1, 1), padding=(1, 1))
      (bn1): BatchNorm2d(128, eps=1e-05, momentum=0.1, affine=True, track_running_stats=True)
      (relu): ReLU(inplace)
    )
    (conv2_3): Conv2d(
      (conv1): Conv2d(128, 128, kernel_size=(3, 3), stride=(1, 1), padding=(1, 1))
      (bn1): BatchNorm2d(128, eps=1e-05, momentum=0.1, affine=True, track_running_stats=True)
      (relu): ReLU(inplace)
    )
    (conv2_4): Conv2d(
      (conv1): Conv2d(128, 128, kernel_size=(3, 3), stride=(1, 1), padding=(1, 1))
      (bn1): BatchNorm2d(128, eps=1e-05, momentum=0.1, affine=True, track_running_stats=True)
      (relu): ReLU(inplace)
    )
    (conv2_5): Conv2d(
      (conv1): Conv2d(128, 128, kernel_size=(3, 3), stride=(1, 1), padding=(1, 1))
      (bn1): BatchNorm2d(128, eps=1e-05, momentum=0.1, affine=True, track_running_stats=True)
      (relu): ReLU(inplace)
    )
    (conv3_1): Conv2d(
      (conv1): Conv2d(128, 256, kernel_size=(3, 3), stride=(2, 2), padding=(1, 1))
      (bn1): BatchNorm2d(256, eps=1e-05, momentum=0.1, affine=True, track_running_stats=True)
      (relu): ReLU(inplace)
    )
    (conv3_2): Conv2d(
      (conv1): Conv2d(256, 256, kernel_size=(3, 3), stride=(1, 1), padding=(1, 1))
      (bn1): BatchNorm2d(256, eps=1e-05, momentum=0.1, affine=True, track_running_stats=True)
      (relu): ReLU(inplace)
    )
    (conv3_3): Conv2d(
      (conv1): Conv2d(256, 256, kernel_size=(3, 3), stride=(1, 1), padding=(1, 1))
      (bn1): BatchNorm2d(256, eps=1e-05, momentum=0.1, affine=True, track_running_stats=True)
      (relu): ReLU(inplace)
    )
    (conv3_4): Conv2d(
      (conv1): Conv2d(256, 256, kernel_size=(3, 3), stride=(1, 1), padding=(1, 1))
      (bn1): BatchNorm2d(256, eps=1e-05, momentum=0.1, affine=True, track_running_stats=True)
      (relu): ReLU(inplace)
    )
    (conv3_5): Conv2d(
      (conv1): Conv2d(256, 256, kernel_size=(3, 3), stride=(1, 1), padding=(1, 1))
      (bn1): BatchNorm2d(256, eps=1e-05, momentum=0.1, affine=True, track_running_stats=True)
      (relu): ReLU(inplace)
    )
    (deconv1): ConvTranspose2d(256, 256, kernel_size=(4, 4), stride=(4, 4), padding=(0, 1), output_padding=(0, 1))
    (deconv2): ConvTranspose2d(128, 256, kernel_size=(2, 2), stride=(2, 2), padding=(0, 1), output_padding=(0, 1))
    (deconv3): ConvTranspose2d(128, 256, kernel_size=(3, 3), stride=(1, 1), padding=(1, 1))
    (rpn_head): NaiveRpnHead(
      (conv3x3): Conv2d(768, 512, kernel_size=(3, 3), stride=(1, 1), padding=(1, 1))
      (relu3x3): ReLU(inplace)
      (conv_cls): Conv2d(512, 4, kernel_size=(1, 1), stride=(1, 1))
      (conv_loc): Conv2d(512, 14, kernel_size=(1, 1), stride=(1, 1))
    )
  )
)
2018-10-18 11:51:01,681 - INFO - load_helper.py[:39] - restore from /home/yc/Myprojects/voxelnet_yc/voxelnet/experiments/save/checkpoint_e10.pth
2018-10-18 11:51:03,976 - INFO - load_helper.py[:11] - missing keys:0
2018-10-18 11:51:03,977 - INFO - load_helper.py[:12] - unused checkpoint keys:0
2018-10-18 11:51:03,977 - INFO - load_helper.py[:13] - used keys:145
2018-10-18 11:51:04,065 - INFO - train_val.py[:168] - start validate
2018-10-18 11:52:50,219 - INFO - train_val.py[:75] - build dataloader done
2018-10-18 11:52:50,343 - INFO - train_val.py[:84] - Voxelnet(
  (feature_learnig): feature_learning_network(
    (vfe1): VFE(
      (fcn1): FCN(
        (conv1): Conv2d(4, 16, kernel_size=(1, 1), stride=(1, 1))
        (bn1): BatchNorm2d(16, eps=1e-05, momentum=0.1, affine=True, track_running_stats=True)
        (relu): ReLU(inplace)
      )
    )
    (fcn1): FCN(
      (conv1): Conv2d(32, 128, kernel_size=(1, 1), stride=(1, 1))
      (bn1): BatchNorm2d(128, eps=1e-05, momentum=0.1, affine=True, track_running_stats=True)
      (relu): ReLU(inplace)
    )
  )
  (conv3d): Conv_Middle_layers(
    (conv1): Conv3d(
      (conv1): Conv3d(128, 64, kernel_size=(3, 3, 3), stride=(2, 1, 1), padding=(1, 1, 1))
      (bn1): BatchNorm3d(64, eps=1e-05, momentum=0.1, affine=True, track_running_stats=True)
      (relu): ReLU(inplace)
    )
    (conv2): Conv3d(
      (conv1): Conv3d(64, 64, kernel_size=(3, 3, 3), stride=(1, 1, 1), padding=(1, 1, 1))
      (bn1): BatchNorm3d(64, eps=1e-05, momentum=0.1, affine=True, track_running_stats=True)
      (relu): ReLU(inplace)
    )
    (conv3): Conv3d(
      (conv1): Conv3d(64, 64, kernel_size=(3, 3, 3), stride=(2, 1, 1), padding=(1, 1, 1))
      (bn1): BatchNorm3d(64, eps=1e-05, momentum=0.1, affine=True, track_running_stats=True)
      (relu): ReLU(inplace)
    )
  )
  (_rpn): RPN(
    (conv1_1): Conv2d(
      (conv1): Conv2d(64, 128, kernel_size=(3, 3), stride=(2, 2), padding=(1, 1))
      (bn1): BatchNorm2d(128, eps=1e-05, momentum=0.1, affine=True, track_running_stats=True)
      (relu): ReLU(inplace)
    )
    (conv1_2): Conv2d(
      (conv1): Conv2d(128, 128, kernel_size=(3, 3), stride=(1, 1), padding=(1, 1))
      (bn1): BatchNorm2d(128, eps=1e-05, momentum=0.1, affine=True, track_running_stats=True)
      (relu): ReLU(inplace)
    )
    (conv1_3): Conv2d(
      (conv1): Conv2d(128, 128, kernel_size=(3, 3), stride=(1, 1), padding=(1, 1))
      (bn1): BatchNorm2d(128, eps=1e-05, momentum=0.1, affine=True, track_running_stats=True)
      (relu): ReLU(inplace)
    )
    (conv1_4): Conv2d(
      (conv1): Conv2d(128, 128, kernel_size=(3, 3), stride=(1, 1), padding=(1, 1))
      (bn1): BatchNorm2d(128, eps=1e-05, momentum=0.1, affine=True, track_running_stats=True)
      (relu): ReLU(inplace)
    )
    (conv2_1): Conv2d(
      (conv1): Conv2d(128, 128, kernel_size=(3, 3), stride=(2, 2), padding=(1, 1))
      (bn1): BatchNorm2d(128, eps=1e-05, momentum=0.1, affine=True, track_running_stats=True)
      (relu): ReLU(inplace)
    )
    (conv2_2): Conv2d(
      (conv1): Conv2d(128, 128, kernel_size=(3, 3), stride=(1, 1), padding=(1, 1))
      (bn1): BatchNorm2d(128, eps=1e-05, momentum=0.1, affine=True, track_running_stats=True)
      (relu): ReLU(inplace)
    )
    (conv2_3): Conv2d(
      (conv1): Conv2d(128, 128, kernel_size=(3, 3), stride=(1, 1), padding=(1, 1))
      (bn1): BatchNorm2d(128, eps=1e-05, momentum=0.1, affine=True, track_running_stats=True)
      (relu): ReLU(inplace)
    )
    (conv2_4): Conv2d(
      (conv1): Conv2d(128, 128, kernel_size=(3, 3), stride=(1, 1), padding=(1, 1))
      (bn1): BatchNorm2d(128, eps=1e-05, momentum=0.1, affine=True, track_running_stats=True)
      (relu): ReLU(inplace)
    )
    (conv2_5): Conv2d(
      (conv1): Conv2d(128, 128, kernel_size=(3, 3), stride=(1, 1), padding=(1, 1))
      (bn1): BatchNorm2d(128, eps=1e-05, momentum=0.1, affine=True, track_running_stats=True)
      (relu): ReLU(inplace)
    )
    (conv3_1): Conv2d(
      (conv1): Conv2d(128, 256, kernel_size=(3, 3), stride=(2, 2), padding=(1, 1))
      (bn1): BatchNorm2d(256, eps=1e-05, momentum=0.1, affine=True, track_running_stats=True)
      (relu): ReLU(inplace)
    )
    (conv3_2): Conv2d(
      (conv1): Conv2d(256, 256, kernel_size=(3, 3), stride=(1, 1), padding=(1, 1))
      (bn1): BatchNorm2d(256, eps=1e-05, momentum=0.1, affine=True, track_running_stats=True)
      (relu): ReLU(inplace)
    )
    (conv3_3): Conv2d(
      (conv1): Conv2d(256, 256, kernel_size=(3, 3), stride=(1, 1), padding=(1, 1))
      (bn1): BatchNorm2d(256, eps=1e-05, momentum=0.1, affine=True, track_running_stats=True)
      (relu): ReLU(inplace)
    )
    (conv3_4): Conv2d(
      (conv1): Conv2d(256, 256, kernel_size=(3, 3), stride=(1, 1), padding=(1, 1))
      (bn1): BatchNorm2d(256, eps=1e-05, momentum=0.1, affine=True, track_running_stats=True)
      (relu): ReLU(inplace)
    )
    (conv3_5): Conv2d(
      (conv1): Conv2d(256, 256, kernel_size=(3, 3), stride=(1, 1), padding=(1, 1))
      (bn1): BatchNorm2d(256, eps=1e-05, momentum=0.1, affine=True, track_running_stats=True)
      (relu): ReLU(inplace)
    )
    (deconv1): ConvTranspose2d(256, 256, kernel_size=(4, 4), stride=(4, 4), padding=(0, 1), output_padding=(0, 1))
    (deconv2): ConvTranspose2d(128, 256, kernel_size=(2, 2), stride=(2, 2), padding=(0, 1), output_padding=(0, 1))
    (deconv3): ConvTranspose2d(128, 256, kernel_size=(3, 3), stride=(1, 1), padding=(1, 1))
    (rpn_head): NaiveRpnHead(
      (conv3x3): Conv2d(768, 512, kernel_size=(3, 3), stride=(1, 1), padding=(1, 1))
      (relu3x3): ReLU(inplace)
      (conv_cls): Conv2d(512, 4, kernel_size=(1, 1), stride=(1, 1))
      (conv_loc): Conv2d(512, 14, kernel_size=(1, 1), stride=(1, 1))
    )
  )
)
2018-10-18 11:52:50,349 - INFO - load_helper.py[:39] - restore from /home/yc/Myprojects/voxelnet_yc/voxelnet/experiments/save/checkpoint_e10.pth
2018-10-18 11:52:52,855 - INFO - load_helper.py[:11] - missing keys:0
2018-10-18 11:52:52,855 - INFO - load_helper.py[:12] - unused checkpoint keys:0
2018-10-18 11:52:52,856 - INFO - load_helper.py[:13] - used keys:145
2018-10-18 11:52:52,964 - INFO - train_val.py[:168] - start validate
2018-10-18 11:53:54,645 - INFO - train_val.py[:75] - build dataloader done
2018-10-18 11:53:54,739 - INFO - train_val.py[:84] - Voxelnet(
  (feature_learnig): feature_learning_network(
    (vfe1): VFE(
      (fcn1): FCN(
        (conv1): Conv2d(4, 16, kernel_size=(1, 1), stride=(1, 1))
        (bn1): BatchNorm2d(16, eps=1e-05, momentum=0.1, affine=True, track_running_stats=True)
        (relu): ReLU(inplace)
      )
    )
    (fcn1): FCN(
      (conv1): Conv2d(32, 128, kernel_size=(1, 1), stride=(1, 1))
      (bn1): BatchNorm2d(128, eps=1e-05, momentum=0.1, affine=True, track_running_stats=True)
      (relu): ReLU(inplace)
    )
  )
  (conv3d): Conv_Middle_layers(
    (conv1): Conv3d(
      (conv1): Conv3d(128, 64, kernel_size=(3, 3, 3), stride=(2, 1, 1), padding=(1, 1, 1))
      (bn1): BatchNorm3d(64, eps=1e-05, momentum=0.1, affine=True, track_running_stats=True)
      (relu): ReLU(inplace)
    )
    (conv2): Conv3d(
      (conv1): Conv3d(64, 64, kernel_size=(3, 3, 3), stride=(1, 1, 1), padding=(1, 1, 1))
      (bn1): BatchNorm3d(64, eps=1e-05, momentum=0.1, affine=True, track_running_stats=True)
      (relu): ReLU(inplace)
    )
    (conv3): Conv3d(
      (conv1): Conv3d(64, 64, kernel_size=(3, 3, 3), stride=(2, 1, 1), padding=(1, 1, 1))
      (bn1): BatchNorm3d(64, eps=1e-05, momentum=0.1, affine=True, track_running_stats=True)
      (relu): ReLU(inplace)
    )
  )
  (_rpn): RPN(
    (conv1_1): Conv2d(
      (conv1): Conv2d(64, 128, kernel_size=(3, 3), stride=(2, 2), padding=(1, 1))
      (bn1): BatchNorm2d(128, eps=1e-05, momentum=0.1, affine=True, track_running_stats=True)
      (relu): ReLU(inplace)
    )
    (conv1_2): Conv2d(
      (conv1): Conv2d(128, 128, kernel_size=(3, 3), stride=(1, 1), padding=(1, 1))
      (bn1): BatchNorm2d(128, eps=1e-05, momentum=0.1, affine=True, track_running_stats=True)
      (relu): ReLU(inplace)
    )
    (conv1_3): Conv2d(
      (conv1): Conv2d(128, 128, kernel_size=(3, 3), stride=(1, 1), padding=(1, 1))
      (bn1): BatchNorm2d(128, eps=1e-05, momentum=0.1, affine=True, track_running_stats=True)
      (relu): ReLU(inplace)
    )
    (conv1_4): Conv2d(
      (conv1): Conv2d(128, 128, kernel_size=(3, 3), stride=(1, 1), padding=(1, 1))
      (bn1): BatchNorm2d(128, eps=1e-05, momentum=0.1, affine=True, track_running_stats=True)
      (relu): ReLU(inplace)
    )
    (conv2_1): Conv2d(
      (conv1): Conv2d(128, 128, kernel_size=(3, 3), stride=(2, 2), padding=(1, 1))
      (bn1): BatchNorm2d(128, eps=1e-05, momentum=0.1, affine=True, track_running_stats=True)
      (relu): ReLU(inplace)
    )
    (conv2_2): Conv2d(
      (conv1): Conv2d(128, 128, kernel_size=(3, 3), stride=(1, 1), padding=(1, 1))
      (bn1): BatchNorm2d(128, eps=1e-05, momentum=0.1, affine=True, track_running_stats=True)
      (relu): ReLU(inplace)
    )
    (conv2_3): Conv2d(
      (conv1): Conv2d(128, 128, kernel_size=(3, 3), stride=(1, 1), padding=(1, 1))
      (bn1): BatchNorm2d(128, eps=1e-05, momentum=0.1, affine=True, track_running_stats=True)
      (relu): ReLU(inplace)
    )
    (conv2_4): Conv2d(
      (conv1): Conv2d(128, 128, kernel_size=(3, 3), stride=(1, 1), padding=(1, 1))
      (bn1): BatchNorm2d(128, eps=1e-05, momentum=0.1, affine=True, track_running_stats=True)
      (relu): ReLU(inplace)
    )
    (conv2_5): Conv2d(
      (conv1): Conv2d(128, 128, kernel_size=(3, 3), stride=(1, 1), padding=(1, 1))
      (bn1): BatchNorm2d(128, eps=1e-05, momentum=0.1, affine=True, track_running_stats=True)
      (relu): ReLU(inplace)
    )
    (conv3_1): Conv2d(
      (conv1): Conv2d(128, 256, kernel_size=(3, 3), stride=(2, 2), padding=(1, 1))
      (bn1): BatchNorm2d(256, eps=1e-05, momentum=0.1, affine=True, track_running_stats=True)
      (relu): ReLU(inplace)
    )
    (conv3_2): Conv2d(
      (conv1): Conv2d(256, 256, kernel_size=(3, 3), stride=(1, 1), padding=(1, 1))
      (bn1): BatchNorm2d(256, eps=1e-05, momentum=0.1, affine=True, track_running_stats=True)
      (relu): ReLU(inplace)
    )
    (conv3_3): Conv2d(
      (conv1): Conv2d(256, 256, kernel_size=(3, 3), stride=(1, 1), padding=(1, 1))
      (bn1): BatchNorm2d(256, eps=1e-05, momentum=0.1, affine=True, track_running_stats=True)
      (relu): ReLU(inplace)
    )
    (conv3_4): Conv2d(
      (conv1): Conv2d(256, 256, kernel_size=(3, 3), stride=(1, 1), padding=(1, 1))
      (bn1): BatchNorm2d(256, eps=1e-05, momentum=0.1, affine=True, track_running_stats=True)
      (relu): ReLU(inplace)
    )
    (conv3_5): Conv2d(
      (conv1): Conv2d(256, 256, kernel_size=(3, 3), stride=(1, 1), padding=(1, 1))
      (bn1): BatchNorm2d(256, eps=1e-05, momentum=0.1, affine=True, track_running_stats=True)
      (relu): ReLU(inplace)
    )
    (deconv1): ConvTranspose2d(256, 256, kernel_size=(4, 4), stride=(4, 4), padding=(0, 1), output_padding=(0, 1))
    (deconv2): ConvTranspose2d(128, 256, kernel_size=(2, 2), stride=(2, 2), padding=(0, 1), output_padding=(0, 1))
    (deconv3): ConvTranspose2d(128, 256, kernel_size=(3, 3), stride=(1, 1), padding=(1, 1))
    (rpn_head): NaiveRpnHead(
      (conv3x3): Conv2d(768, 512, kernel_size=(3, 3), stride=(1, 1), padding=(1, 1))
      (relu3x3): ReLU(inplace)
      (conv_cls): Conv2d(512, 4, kernel_size=(1, 1), stride=(1, 1))
      (conv_loc): Conv2d(512, 14, kernel_size=(1, 1), stride=(1, 1))
    )
  )
)
2018-10-18 11:53:54,740 - INFO - load_helper.py[:39] - restore from /home/yc/Myprojects/voxelnet_yc/voxelnet/experiments/save/checkpoint_e10.pth
2018-10-18 11:53:57,083 - INFO - load_helper.py[:11] - missing keys:0
2018-10-18 11:53:57,083 - INFO - load_helper.py[:12] - unused checkpoint keys:0
2018-10-18 11:53:57,083 - INFO - load_helper.py[:13] - used keys:145
2018-10-18 11:53:57,172 - INFO - train_val.py[:172] - start validate
2018-10-18 11:54:25,157 - INFO - train_val.py[:75] - build dataloader done
2018-10-18 11:54:25,238 - INFO - train_val.py[:84] - Voxelnet(
  (feature_learnig): feature_learning_network(
    (vfe1): VFE(
      (fcn1): FCN(
        (conv1): Conv2d(4, 16, kernel_size=(1, 1), stride=(1, 1))
        (bn1): BatchNorm2d(16, eps=1e-05, momentum=0.1, affine=True, track_running_stats=True)
        (relu): ReLU(inplace)
      )
    )
    (fcn1): FCN(
      (conv1): Conv2d(32, 128, kernel_size=(1, 1), stride=(1, 1))
      (bn1): BatchNorm2d(128, eps=1e-05, momentum=0.1, affine=True, track_running_stats=True)
      (relu): ReLU(inplace)
    )
  )
  (conv3d): Conv_Middle_layers(
    (conv1): Conv3d(
      (conv1): Conv3d(128, 64, kernel_size=(3, 3, 3), stride=(2, 1, 1), padding=(1, 1, 1))
      (bn1): BatchNorm3d(64, eps=1e-05, momentum=0.1, affine=True, track_running_stats=True)
      (relu): ReLU(inplace)
    )
    (conv2): Conv3d(
      (conv1): Conv3d(64, 64, kernel_size=(3, 3, 3), stride=(1, 1, 1), padding=(1, 1, 1))
      (bn1): BatchNorm3d(64, eps=1e-05, momentum=0.1, affine=True, track_running_stats=True)
      (relu): ReLU(inplace)
    )
    (conv3): Conv3d(
      (conv1): Conv3d(64, 64, kernel_size=(3, 3, 3), stride=(2, 1, 1), padding=(1, 1, 1))
      (bn1): BatchNorm3d(64, eps=1e-05, momentum=0.1, affine=True, track_running_stats=True)
      (relu): ReLU(inplace)
    )
  )
  (_rpn): RPN(
    (conv1_1): Conv2d(
      (conv1): Conv2d(64, 128, kernel_size=(3, 3), stride=(2, 2), padding=(1, 1))
      (bn1): BatchNorm2d(128, eps=1e-05, momentum=0.1, affine=True, track_running_stats=True)
      (relu): ReLU(inplace)
    )
    (conv1_2): Conv2d(
      (conv1): Conv2d(128, 128, kernel_size=(3, 3), stride=(1, 1), padding=(1, 1))
      (bn1): BatchNorm2d(128, eps=1e-05, momentum=0.1, affine=True, track_running_stats=True)
      (relu): ReLU(inplace)
    )
    (conv1_3): Conv2d(
      (conv1): Conv2d(128, 128, kernel_size=(3, 3), stride=(1, 1), padding=(1, 1))
      (bn1): BatchNorm2d(128, eps=1e-05, momentum=0.1, affine=True, track_running_stats=True)
      (relu): ReLU(inplace)
    )
    (conv1_4): Conv2d(
      (conv1): Conv2d(128, 128, kernel_size=(3, 3), stride=(1, 1), padding=(1, 1))
      (bn1): BatchNorm2d(128, eps=1e-05, momentum=0.1, affine=True, track_running_stats=True)
      (relu): ReLU(inplace)
    )
    (conv2_1): Conv2d(
      (conv1): Conv2d(128, 128, kernel_size=(3, 3), stride=(2, 2), padding=(1, 1))
      (bn1): BatchNorm2d(128, eps=1e-05, momentum=0.1, affine=True, track_running_stats=True)
      (relu): ReLU(inplace)
    )
    (conv2_2): Conv2d(
      (conv1): Conv2d(128, 128, kernel_size=(3, 3), stride=(1, 1), padding=(1, 1))
      (bn1): BatchNorm2d(128, eps=1e-05, momentum=0.1, affine=True, track_running_stats=True)
      (relu): ReLU(inplace)
    )
    (conv2_3): Conv2d(
      (conv1): Conv2d(128, 128, kernel_size=(3, 3), stride=(1, 1), padding=(1, 1))
      (bn1): BatchNorm2d(128, eps=1e-05, momentum=0.1, affine=True, track_running_stats=True)
      (relu): ReLU(inplace)
    )
    (conv2_4): Conv2d(
      (conv1): Conv2d(128, 128, kernel_size=(3, 3), stride=(1, 1), padding=(1, 1))
      (bn1): BatchNorm2d(128, eps=1e-05, momentum=0.1, affine=True, track_running_stats=True)
      (relu): ReLU(inplace)
    )
    (conv2_5): Conv2d(
      (conv1): Conv2d(128, 128, kernel_size=(3, 3), stride=(1, 1), padding=(1, 1))
      (bn1): BatchNorm2d(128, eps=1e-05, momentum=0.1, affine=True, track_running_stats=True)
      (relu): ReLU(inplace)
    )
    (conv3_1): Conv2d(
      (conv1): Conv2d(128, 256, kernel_size=(3, 3), stride=(2, 2), padding=(1, 1))
      (bn1): BatchNorm2d(256, eps=1e-05, momentum=0.1, affine=True, track_running_stats=True)
      (relu): ReLU(inplace)
    )
    (conv3_2): Conv2d(
      (conv1): Conv2d(256, 256, kernel_size=(3, 3), stride=(1, 1), padding=(1, 1))
      (bn1): BatchNorm2d(256, eps=1e-05, momentum=0.1, affine=True, track_running_stats=True)
      (relu): ReLU(inplace)
    )
    (conv3_3): Conv2d(
      (conv1): Conv2d(256, 256, kernel_size=(3, 3), stride=(1, 1), padding=(1, 1))
      (bn1): BatchNorm2d(256, eps=1e-05, momentum=0.1, affine=True, track_running_stats=True)
      (relu): ReLU(inplace)
    )
    (conv3_4): Conv2d(
      (conv1): Conv2d(256, 256, kernel_size=(3, 3), stride=(1, 1), padding=(1, 1))
      (bn1): BatchNorm2d(256, eps=1e-05, momentum=0.1, affine=True, track_running_stats=True)
      (relu): ReLU(inplace)
    )
    (conv3_5): Conv2d(
      (conv1): Conv2d(256, 256, kernel_size=(3, 3), stride=(1, 1), padding=(1, 1))
      (bn1): BatchNorm2d(256, eps=1e-05, momentum=0.1, affine=True, track_running_stats=True)
      (relu): ReLU(inplace)
    )
    (deconv1): ConvTranspose2d(256, 256, kernel_size=(4, 4), stride=(4, 4), padding=(0, 1), output_padding=(0, 1))
    (deconv2): ConvTranspose2d(128, 256, kernel_size=(2, 2), stride=(2, 2), padding=(0, 1), output_padding=(0, 1))
    (deconv3): ConvTranspose2d(128, 256, kernel_size=(3, 3), stride=(1, 1), padding=(1, 1))
    (rpn_head): NaiveRpnHead(
      (conv3x3): Conv2d(768, 512, kernel_size=(3, 3), stride=(1, 1), padding=(1, 1))
      (relu3x3): ReLU(inplace)
      (conv_cls): Conv2d(512, 4, kernel_size=(1, 1), stride=(1, 1))
      (conv_loc): Conv2d(512, 14, kernel_size=(1, 1), stride=(1, 1))
    )
  )
)
2018-10-18 11:54:25,240 - INFO - load_helper.py[:39] - restore from /home/yc/Myprojects/voxelnet_yc/voxelnet/experiments/save/checkpoint_e10.pth
2018-10-18 11:54:27,633 - INFO - load_helper.py[:11] - missing keys:0
2018-10-18 11:54:27,634 - INFO - load_helper.py[:12] - unused checkpoint keys:0
2018-10-18 11:54:27,634 - INFO - load_helper.py[:13] - used keys:145
…
