2018-10-16 22:26:04,276 - INFO - train.py[:62] - build dataloader done
2018-10-16 22:26:04,358 - INFO - train.py[:71] - Voxelnet(
  (feature_learnig): feature_learning_network(
    (vfe1): VFE(
      (fcn1): FCN(
        (conv1): Conv2d(4, 16, kernel_size=(1, 1), stride=(1, 1))
        (bn1): BatchNorm2d(16, eps=1e-05, momentum=0.1, affine=True, track_running_stats=True)
        (relu): ReLU(inplace)
      )
    )
    (fcn1): FCN(
      (conv1): Conv2d(32, 128, kernel_size=(1, 1), stride=(1, 1))
      (bn1): BatchNorm2d(128, eps=1e-05, momentum=0.1, affine=True, track_running_stats=True)
      (relu): ReLU(inplace)
    )
  )
  (conv3d): Conv_Middle_layers(
    (conv1): Conv3d(
      (conv1): Conv3d(128, 64, kernel_size=(3, 3, 3), stride=(2, 1, 1), padding=(1, 1, 1))
      (bn1): BatchNorm3d(64, eps=1e-05, momentum=0.1, affine=True, track_running_stats=True)
      (relu): ReLU(inplace)
    )
    (conv2): Conv3d(
      (conv1): Conv3d(64, 64, kernel_size=(3, 3, 3), stride=(1, 1, 1), padding=(1, 1, 1))
      (bn1): BatchNorm3d(64, eps=1e-05, momentum=0.1, affine=True, track_running_stats=True)
      (relu): ReLU(inplace)
    )
    (conv3): Conv3d(
      (conv1): Conv3d(64, 64, kernel_size=(3, 3, 3), stride=(2, 1, 1), padding=(1, 1, 1))
      (bn1): BatchNorm3d(64, eps=1e-05, momentum=0.1, affine=True, track_running_stats=True)
      (relu): ReLU(inplace)
    )
  )
  (_rpn): RPN(
    (conv1_1): Conv2d(
      (conv1): Conv2d(64, 128, kernel_size=(3, 3), stride=(2, 2), padding=(1, 1))
      (bn1): BatchNorm2d(128, eps=1e-05, momentum=0.1, affine=True, track_running_stats=True)
      (relu): ReLU(inplace)
    )
    (conv1_2): Conv2d(
      (conv1): Conv2d(128, 128, kernel_size=(3, 3), stride=(1, 1), padding=(1, 1))
      (bn1): BatchNorm2d(128, eps=1e-05, momentum=0.1, affine=True, track_running_stats=True)
      (relu): ReLU(inplace)
    )
    (conv1_3): Conv2d(
      (conv1): Conv2d(128, 128, kernel_size=(3, 3), stride=(1, 1), padding=(1, 1))
      (bn1): BatchNorm2d(128, eps=1e-05, momentum=0.1, affine=True, track_running_stats=True)
      (relu): ReLU(inplace)
    )
    (conv1_4): Conv2d(
      (conv1): Conv2d(128, 128, kernel_size=(3, 3), stride=(1, 1), padding=(1, 1))
      (bn1): BatchNorm2d(128, eps=1e-05, momentum=0.1, affine=True, track_running_stats=True)
      (relu): ReLU(inplace)
    )
    (conv2_1): Conv2d(
      (conv1): Conv2d(128, 128, kernel_size=(3, 3), stride=(2, 2), padding=(1, 1))
      (bn1): BatchNorm2d(128, eps=1e-05, momentum=0.1, affine=True, track_running_stats=True)
      (relu): ReLU(inplace)
    )
    (conv2_2): Conv2d(
      (conv1): Conv2d(128, 128, kernel_size=(3, 3), stride=(1, 1), padding=(1, 1))
      (bn1): BatchNorm2d(128, eps=1e-05, momentum=0.1, affine=True, track_running_stats=True)
      (relu): ReLU(inplace)
    )
    (conv2_3): Conv2d(
      (conv1): Conv2d(128, 128, kernel_size=(3, 3), stride=(1, 1), padding=(1, 1))
      (bn1): BatchNorm2d(128, eps=1e-05, momentum=0.1, affine=True, track_running_stats=True)
      (relu): ReLU(inplace)
    )
    (conv2_4): Conv2d(
      (conv1): Conv2d(128, 128, kernel_size=(3, 3), stride=(1, 1), padding=(1, 1))
      (bn1): BatchNorm2d(128, eps=1e-05, momentum=0.1, affine=True, track_running_stats=True)
      (relu): ReLU(inplace)
    )
    (conv2_5): Conv2d(
      (conv1): Conv2d(128, 128, kernel_size=(3, 3), stride=(1, 1), padding=(1, 1))
      (bn1): BatchNorm2d(128, eps=1e-05, momentum=0.1, affine=True, track_running_stats=True)
      (relu): ReLU(inplace)
    )
    (conv3_1): Conv2d(
      (conv1): Conv2d(128, 256, kernel_size=(3, 3), stride=(2, 2), padding=(1, 1))
      (bn1): BatchNorm2d(256, eps=1e-05, momentum=0.1, affine=True, track_running_stats=True)
      (relu): ReLU(inplace)
    )
    (conv3_2): Conv2d(
      (conv1): Conv2d(256, 256, kernel_size=(3, 3), stride=(1, 1), padding=(1, 1))
      (bn1): BatchNorm2d(256, eps=1e-05, momentum=0.1, affine=True, track_running_stats=True)
      (relu): ReLU(inplace)
    )
    (conv3_3): Conv2d(
      (conv1): Conv2d(256, 256, kernel_size=(3, 3), stride=(1, 1), padding=(1, 1))
      (bn1): BatchNorm2d(256, eps=1e-05, momentum=0.1, affine=True, track_running_stats=True)
      (relu): ReLU(inplace)
    )
    (conv3_4): Conv2d(
      (conv1): Conv2d(256, 256, kernel_size=(3, 3), stride=(1, 1), padding=(1, 1))
      (bn1): BatchNorm2d(256, eps=1e-05, momentum=0.1, affine=True, track_running_stats=True)
      (relu): ReLU(inplace)
    )
    (conv3_5): Conv2d(
      (conv1): Conv2d(256, 256, kernel_size=(3, 3), stride=(1, 1), padding=(1, 1))
      (bn1): BatchNorm2d(256, eps=1e-05, momentum=0.1, affine=True, track_running_stats=True)
      (relu): ReLU(inplace)
    )
    (deconv1): ConvTranspose2d(256, 256, kernel_size=(4, 4), stride=(4, 4), padding=(0, 1), output_padding=(0, 1))
    (deconv2): ConvTranspose2d(128, 256, kernel_size=(2, 2), stride=(2, 2), padding=(0, 1), output_padding=(0, 1))
    (deconv3): ConvTranspose2d(128, 256, kernel_size=(3, 3), stride=(1, 1), padding=(1, 1))
    (rpn_head): NaiveRpnHead(
      (conv3x3): Conv2d(768, 512, kernel_size=(3, 3), stride=(1, 1), padding=(1, 1))
      (relu3x3): ReLU(inplace)
      (conv_cls): Conv2d(512, 4, kernel_size=(1, 1), stride=(1, 1))
      (conv_loc): Conv2d(512, 14, kernel_size=(1, 1), stride=(1, 1))
    )
  )
)
2018-10-16 22:26:07,405 - INFO - train.py[:116] - Epoch: [0][0/5] Loss: 0.71238 (rpn_cls: 0.69919 rpn_loc: 0.01319 rpn_acc: 0.42578)
2018-10-16 22:26:07,751 - INFO - train.py[:116] - Epoch: [0][1/5] Loss: 0.62004 (rpn_cls: 0.60624 rpn_loc: 0.01380 rpn_acc: 0.99414)
2018-10-16 22:26:08,095 - INFO - train.py[:116] - Epoch: [0][2/5] Loss: 0.46982 (rpn_cls: 0.43417 rpn_loc: 0.03565 rpn_acc: 0.98633)
…
2018-10-16 22:36:58,983 - INFO - log_helper.py[:37] - Progress: 44 / 50 [88%], Speed: 1.303 s/iter, ETA 0:00:00 (D:H:M)

2018-10-16 22:36:59,194 - INFO - train.py[:120] - Epoch: [9][4/5] Time: 1.609276 Loss: 0.19172 (rpn_cls: 0.12758 rpn_loc: 0.06414 rpn_acc: 0.96484)
2018-10-16 22:36:59,194 - INFO - log_helper.py[:37] - Progress: 45 / 50 [90%], Speed: 1.609 s/iter, ETA 0:00:00 (D:H:M)

2018-10-16 22:43:24,049 - INFO - train.py[:64] - build dataloader done
2018-10-16 22:43:24,136 - INFO - train.py[:73] - Voxelnet(
  (feature_learnig): feature_learning_network(
    (vfe1): VFE(
      (fcn1): FCN(
        (conv1): Conv2d(4, 16, kernel_size=(1, 1), stride=(1, 1))
        (bn1): BatchNorm2d(16, eps=1e-05, momentum=0.1, affine=True, track_running_stats=True)
        (relu): ReLU(inplace)
      )
    )
    (fcn1): FCN(
      (conv1): Conv2d(32, 128, kernel_size=(1, 1), stride=(1, 1))
      (bn1): BatchNorm2d(128, eps=1e-05, momentum=0.1, affine=True, track_running_stats=True)
      (relu): ReLU(inplace)
    )
  )
  (conv3d): Conv_Middle_layers(
    (conv1): Conv3d(
      (conv1): Conv3d(128, 64, kernel_size=(3, 3, 3), stride=(2, 1, 1), padding=(1, 1, 1))
      (bn1): BatchNorm3d(64, eps=1e-05, momentum=0.1, affine=True, track_running_stats=True)
      (relu): ReLU(inplace)
    )
    (conv2): Conv3d(
      (conv1): Conv3d(64, 64, kernel_size=(3, 3, 3), stride=(1, 1, 1), padding=(1, 1, 1))
      (bn1): BatchNorm3d(64, eps=1e-05, momentum=0.1, affine=True, track_running_stats=True)
      (relu): ReLU(inplace)
    )
    (conv3): Conv3d(
      (conv1): Conv3d(64, 64, kernel_size=(3, 3, 3), stride=(2, 1, 1), padding=(1, 1, 1))
      (bn1): BatchNorm3d(64, eps=1e-05, momentum=0.1, affine=True, track_running_stats=True)
      (relu): ReLU(inplace)
    )
  )
  (_rpn): RPN(
    (conv1_1): Conv2d(
      (conv1): Conv2d(64, 128, kernel_size=(3, 3), stride=(2, 2), padding=(1, 1))
      (bn1): BatchNorm2d(128, eps=1e-05, momentum=0.1, affine=True, track_running_stats=True)
      (relu): ReLU(inplace)
    )
    (conv1_2): Conv2d(
      (conv1): Conv2d(128, 128, kernel_size=(3, 3), stride=(1, 1), padding=(1, 1))
      (bn1): BatchNorm2d(128, eps=1e-05, momentum=0.1, affine=True, track_running_stats=True)
      (relu): ReLU(inplace)
    )
    (conv1_3): Conv2d(
      (conv1): Conv2d(128, 128, kernel_size=(3, 3), stride=(1, 1), padding=(1, 1))
      (bn1): BatchNorm2d(128, eps=1e-05, momentum=0.1, affine=True, track_running_stats=True)
      (relu): ReLU(inplace)
    )
    (conv1_4): Conv2d(
      (conv1): Conv2d(128, 128, kernel_size=(3, 3), stride=(1, 1), padding=(1, 1))
      (bn1): BatchNorm2d(128, eps=1e-05, momentum=0.1, affine=True, track_running_stats=True)
      (relu): ReLU(inplace)
    )
    (conv2_1): Conv2d(
      (conv1): Conv2d(128, 128, kernel_size=(3, 3), stride=(2, 2), padding=(1, 1))
      (bn1): BatchNorm2d(128, eps=1e-05, momentum=0.1, affine=True, track_running_stats=True)
      (relu): ReLU(inplace)
    )
    (conv2_2): Conv2d(
      (conv1): Conv2d(128, 128, kernel_size=(3, 3), stride=(1, 1), padding=(1, 1))
      (bn1): BatchNorm2d(128, eps=1e-05, momentum=0.1, affine=True, track_running_stats=True)
      (relu): ReLU(inplace)
    )
    (conv2_3): Conv2d(
      (conv1): Conv2d(128, 128, kernel_size=(3, 3), stride=(1, 1), padding=(1, 1))
      (bn1): BatchNorm2d(128, eps=1e-05, momentum=0.1, affine=True, track_running_stats=True)
      (relu): ReLU(inplace)
    )
    (conv2_4): Conv2d(
      (conv1): Conv2d(128, 128, kernel_size=(3, 3), stride=(1, 1), padding=(1, 1))
      (bn1): BatchNorm2d(128, eps=1e-05, momentum=0.1, affine=True, track_running_stats=True)
      (relu): ReLU(inplace)
    )
    (conv2_5): Conv2d(
      (conv1): Conv2d(128, 128, kernel_size=(3, 3), stride=(1, 1), padding=(1, 1))
      (bn1): BatchNorm2d(128, eps=1e-05, momentum=0.1, affine=True, track_running_stats=True)
      (relu): ReLU(inplace)
    )
    (conv3_1): Conv2d(
      (conv1): Conv2d(128, 256, kernel_size=(3, 3), stride=(2, 2), padding=(1, 1))
      (bn1): BatchNorm2d(256, eps=1e-05, momentum=0.1, affine=True, track_running_stats=True)
      (relu): ReLU(inplace)
    )
    (conv3_2): Conv2d(
      (conv1): Conv2d(256, 256, kernel_size=(3, 3), stride=(1, 1), padding=(1, 1))
      (bn1): BatchNorm2d(256, eps=1e-05, momentum=0.1, affine=True, track_running_stats=True)
      (relu): ReLU(inplace)
    )
    (conv3_3): Conv2d(
      (conv1): Conv2d(256, 256, kernel_size=(3, 3), stride=(1, 1), padding=(1, 1))
      (bn1): BatchNorm2d(256, eps=1e-05, momentum=0.1, affine=True, track_running_stats=True)
      (relu): ReLU(inplace)
    )
    (conv3_4): Conv2d(
      (conv1): Conv2d(256, 256, kernel_size=(3, 3), stride=(1, 1), padding=(1, 1))
      (bn1): BatchNorm2d(256, eps=1e-05, momentum=0.1, affine=True, track_running_stats=True)
      (relu): ReLU(inplace)
    )
    (conv3_5): Conv2d(
      (conv1): Conv2d(256, 256, kernel_size=(3, 3), stride=(1, 1), padding=(1, 1))
      (bn1): BatchNorm2d(256, eps=1e-05, momentum=0.1, affine=True, track_running_stats=True)
      (relu): ReLU(inplace)
    )
    (deconv1): ConvTranspose2d(256, 256, kernel_size=(4, 4), stride=(4, 4), padding=(0, 1), output_padding=(0, 1))
    (deconv2): ConvTranspose2d(128, 256, kernel_size=(2, 2), stride=(2, 2), padding=(0, 1), output_padding=(0, 1))
    (deconv3): ConvTranspose2d(128, 256, kernel_size=(3, 3), stride=(1, 1), padding=(1, 1))
    (rpn_head): NaiveRpnHead(
      (conv3x3): Conv2d(768, 512, kernel_size=(3, 3), stride=(1, 1), padding=(1, 1))
      (relu3x3): ReLU(inplace)
      (conv_cls): Conv2d(512, 4, kernel_size=(1, 1), stride=(1, 1))
      (conv_loc): Conv2d(512, 14, kernel_size=(1, 1), stride=(1, 1))
    )
  )
)
2018-10-16 22:53:13,875 - INFO - train.py[:64] - build dataloader done
2018-10-16 22:53:13,956 - INFO - train.py[:73] - Voxelnet(
  (feature_learnig): feature_learning_network(
    (vfe1): VFE(
      (fcn1): FCN(
        (conv1): Conv2d(4, 16, kernel_size=(1, 1), stride=(1, 1))
        (bn1): BatchNorm2d(16, eps=1e-05, momentum=0.1, affine=True, track_running_stats=True)
        (relu): ReLU(inplace)
      )
    )
    (fcn1): FCN(
      (conv1): Conv2d(32, 128, kernel_size=(1, 1), stride=(1, 1))
      (bn1): BatchNorm2d(128, eps=1e-05, momentum=0.1, affine=True, track_running_stats=True)
      (relu): ReLU(inplace)
    )
  )
  (conv3d): Conv_Middle_layers(
    (conv1): Conv3d(
      (conv1): Conv3d(128, 64, kernel_size=(3, 3, 3), stride=(2, 1, 1), padding=(1, 1, 1))
      (bn1): BatchNorm3d(64, eps=1e-05, momentum=0.1, affine=True, track_running_stats=True)
      (relu): ReLU(inplace)
    )
    (conv2): Conv3d(
      (conv1): Conv3d(64, 64, kernel_size=(3, 3, 3), stride=(1, 1, 1), padding=(1, 1, 1))
      (bn1): BatchNorm3d(64, eps=1e-05, momentum=0.1, affine=True, track_running_stats=True)
      (relu): ReLU(inplace)
    )
    (conv3): Conv3d(
      (conv1): Conv3d(64, 64, kernel_size=(3, 3, 3), stride=(2, 1, 1), padding=(1, 1, 1))
      (bn1): BatchNorm3d(64, eps=1e-05, momentum=0.1, affine=True, track_running_stats=True)
      (relu): ReLU(inplace)
    )
  )
  (_rpn): RPN(
    (conv1_1): Conv2d(
      (conv1): Conv2d(64, 128, kernel_size=(3, 3), stride=(2, 2), padding=(1, 1))
      (bn1): BatchNorm2d(128, eps=1e-05, momentum=0.1, affine=True, track_running_stats=True)
      (relu): ReLU(inplace)
    )
    (conv1_2): Conv2d(
      (conv1): Conv2d(128, 128, kernel_size=(3, 3), stride=(1, 1), padding=(1, 1))
      (bn1): BatchNorm2d(128, eps=1e-05, momentum=0.1, affine=True, track_running_stats=True)
      (relu): ReLU(inplace)
    )
    (conv1_3): Conv2d(
      (conv1): Conv2d(128, 128, kernel_size=(3, 3), stride=(1, 1), padding=(1, 1))
      (bn1): BatchNorm2d(128, eps=1e-05, momentum=0.1, affine=True, track_running_stats=True)
      (relu): ReLU(inplace)
    )
    (conv1_4): Conv2d(
      (conv1): Conv2d(128, 128, kernel_size=(3, 3), stride=(1, 1), padding=(1, 1))
      (bn1): BatchNorm2d(128, eps=1e-05, momentum=0.1, affine=True, track_running_stats=True)
      (relu): ReLU(inplace)
    )
    (conv2_1): Conv2d(
      (conv1): Conv2d(128, 128, kernel_size=(3, 3), stride=(2, 2), padding=(1, 1))
      (bn1): BatchNorm2d(128, eps=1e-05, momentum=0.1, affine=True, track_running_stats=True)
      (relu): ReLU(inplace)
    )
    (conv2_2): Conv2d(
      (conv1): Conv2d(128, 128, kernel_size=(3, 3), stride=(1, 1), padding=(1, 1))
      (bn1): BatchNorm2d(128, eps=1e-05, momentum=0.1, affine=True, track_running_stats=True)
      (relu): ReLU(inplace)
    )
    (conv2_3): Conv2d(
      (conv1): Conv2d(128, 128, kernel_size=(3, 3), stride=(1, 1), padding=(1, 1))
      (bn1): BatchNorm2d(128, eps=1e-05, momentum=0.1, affine=True, track_running_stats=True)
      (relu): ReLU(inplace)
    )
    (conv2_4): Conv2d(
      (conv1): Conv2d(128, 128, kernel_size=(3, 3), stride=(1, 1), padding=(1, 1))
      (bn1): BatchNorm2d(128, eps=1e-05, momentum=0.1, affine=True, track_running_stats=True)
      (relu): ReLU(inplace)
    )
    (conv2_5): Conv2d(
      (conv1): Conv2d(128, 128, kernel_size=(3, 3), stride=(1, 1), padding=(1, 1))
      (bn1): BatchNorm2d(128, eps=1e-05, momentum=0.1, affine=True, track_running_stats=True)
      (relu): ReLU(inplace)
    )
    (conv3_1): Conv2d(
      (conv1): Conv2d(128, 256, kernel_size=(3, 3), stride=(2, 2), padding=(1, 1))
      (bn1): BatchNorm2d(256, eps=1e-05, momentum=0.1, affine=True, track_running_stats=True)
      (relu): ReLU(inplace)
    )
    (conv3_2): Conv2d(
      (conv1): Conv2d(256, 256, kernel_size=(3, 3), stride=(1, 1), padding=(1, 1))
      (bn1): BatchNorm2d(256, eps=1e-05, momentum=0.1, affine=True, track_running_stats=True)
      (relu): ReLU(inplace)
    )
    (conv3_3): Conv2d(
      (conv1): Conv2d(256, 256, kernel_size=(3, 3), stride=(1, 1), padding=(1, 1))
      (bn1): BatchNorm2d(256, eps=1e-05, momentum=0.1, affine=True, track_running_stats=True)
      (relu): ReLU(inplace)
    )
    (conv3_4): Conv2d(
      (conv1): Conv2d(256, 256, kernel_size=(3, 3), stride=(1, 1), padding=(1, 1))
      (bn1): BatchNorm2d(256, eps=1e-05, momentum=0.1, affine=True, track_running_stats=True)
      (relu): ReLU(inplace)
    )
    (conv3_5): Conv2d(
      (conv1): Conv2d(256, 256, kernel_size=(3, 3), stride=(1, 1), padding=(1, 1))
      (bn1): BatchNorm2d(256, eps=1e-05, momentum=0.1, affine=True, track_running_stats=True)
      (relu): ReLU(inplace)
    )
    (deconv1): ConvTranspose2d(256, 256, kernel_size=(4, 4), stride=(4, 4), padding=(0, 1), output_padding=(0, 1))
    (deconv2): ConvTranspose2d(128, 256, kernel_size=(2, 2), stride=(2, 2), padding=(0, 1), output_padding=(0, 1))
    (deconv3): ConvTranspose2d(128, 256, kernel_size=(3, 3), stride=(1, 1), padding=(1, 1))
    (rpn_head): NaiveRpnHead(
      (conv3x3): Conv2d(768, 512, kernel_size=(3, 3), stride=(1, 1), padding=(1, 1))
      (relu3x3): ReLU(inplace)
      (conv_cls): Conv2d(512, 4, kernel_size=(1, 1), stride=(1, 1))
      (conv_loc): Conv2d(512, 14, kernel_size=(1, 1), stride=(1, 1))
    )
  )
)
2018-10-16 22:53:16,795 - INFO - train.py[:122] - Epoch: [0][0/5] LR:0.100000 Time: 0.327008 Loss: 0.69808 (rpn_cls: 0.68450 rpn_loc: 0.01358 rpn_acc: 0.75781)
2018-10-16 22:53:16,795 - INFO - log_helper.py[:37] - Progress: -4 / 50 [-8%], Speed: 0.327 s/iter, ETA 0:00:00 (D:H:M)

2018-10-16 22:53:17,139 - INFO - train.py[:122] - Epoch: [0][1/5] LR:0.100000 Time: 0.657856 Loss: 0.61232 (rpn_cls: 0.59946 rpn_loc: 0.01286 rpn_acc: 0.99414)
…
2018-10-17 11:06:19,544 - INFO - log_helper.py[:37] - Progress: 17 / 20 [85%], Speed: 0.293 s/iter, ETA 0:00:00 (D:H:M)

2018-10-17 11:06:19,889 - INFO - train_val.py[:124] - Epoch: [9][1/2] LR:0.001000 Time: 0.638517 Loss: 0.08114 (rpn_cls: 0.06487 rpn_loc: 0.01627 rpn_acc: 0.99219)
2018-10-17 11:06:19,889 - INFO - log_helper.py[:37] - Progress: 18 / 20 [90%], Speed: 0.639 s/iter, ETA 0:00:00 (D:H:M)

2018-10-17 21:20:27,519 - INFO - train_val.py[:66] - build dataloader done
2018-10-17 21:20:27,638 - INFO - train_val.py[:75] - Voxelnet(
  (feature_learnig): feature_learning_network(
    (vfe1): VFE(
      (fcn1): FCN(
        (conv1): Conv2d(4, 16, kernel_size=(1, 1), stride=(1, 1))
        (bn1): BatchNorm2d(16, eps=1e-05, momentum=0.1, affine=True, track_running_stats=True)
        (relu): ReLU(inplace)
      )
    )
    (fcn1): FCN(
      (conv1): Conv2d(32, 128, kernel_size=(1, 1), stride=(1, 1))
      (bn1): BatchNorm2d(128, eps=1e-05, momentum=0.1, affine=True, track_running_stats=True)
      (relu): ReLU(inplace)
    )
  )
  (conv3d): Conv_Middle_layers(
    (conv1): Conv3d(
      (conv1): Conv3d(128, 64, kernel_size=(3, 3, 3), stride=(2, 1, 1), padding=(1, 1, 1))
      (bn1): BatchNorm3d(64, eps=1e-05, momentum=0.1, affine=True, track_running_stats=True)
      (relu): ReLU(inplace)
    )
    (conv2): Conv3d(
      (conv1): Conv3d(64, 64, kernel_size=(3, 3, 3), stride=(1, 1, 1), padding=(1, 1, 1))
      (bn1): BatchNorm3d(64, eps=1e-05, momentum=0.1, affine=True, track_running_stats=True)
      (relu): ReLU(inplace)
    )
    (conv3): Conv3d(
      (conv1): Conv3d(64, 64, kernel_size=(3, 3, 3), stride=(2, 1, 1), padding=(1, 1, 1))
      (bn1): BatchNorm3d(64, eps=1e-05, momentum=0.1, affine=True, track_running_stats=True)
      (relu): ReLU(inplace)
    )
  )
  (_rpn): RPN(
    (conv1_1): Conv2d(
      (conv1): Conv2d(64, 128, kernel_size=(3, 3), stride=(2, 2), padding=(1, 1))
      (bn1): BatchNorm2d(128, eps=1e-05, momentum=0.1, affine=True, track_running_stats=True)
      (relu): ReLU(inplace)
    )
    (conv1_2): Conv2d(
      (conv1): Conv2d(128, 128, kernel_size=(3, 3), stride=(1, 1), padding=(1, 1))
      (bn1): BatchNorm2d(128, eps=1e-05, momentum=0.1, affine=True, track_running_stats=True)
      (relu): ReLU(inplace)
    )
    (conv1_3): Conv2d(
      (conv1): Conv2d(128, 128, kernel_size=(3, 3), stride=(1, 1), padding=(1, 1))
      (bn1): BatchNorm2d(128, eps=1e-05, momentum=0.1, affine=True, track_running_stats=True)
      (relu): ReLU(inplace)
    )
    (conv1_4): Conv2d(
      (conv1): Conv2d(128, 128, kernel_size=(3, 3), stride=(1, 1), padding=(1, 1))
      (bn1): BatchNorm2d(128, eps=1e-05, momentum=0.1, affine=True, track_running_stats=True)
      (relu): ReLU(inplace)
    )
    (conv2_1): Conv2d(
      (conv1): Conv2d(128, 128, kernel_size=(3, 3), stride=(2, 2), padding=(1, 1))
      (bn1): BatchNorm2d(128, eps=1e-05, momentum=0.1, affine=True, track_running_stats=True)
      (relu): ReLU(inplace)
    )
    (conv2_2): Conv2d(
      (conv1): Conv2d(128, 128, kernel_size=(3, 3), stride=(1, 1), padding=(1, 1))
      (bn1): BatchNorm2d(128, eps=1e-05, momentum=0.1, affine=True, track_running_stats=True)
      (relu): ReLU(inplace)
    )
    (conv2_3): Conv2d(
      (conv1): Conv2d(128, 128, kernel_size=(3, 3), stride=(1, 1), padding=(1, 1))
      (bn1): BatchNorm2d(128, eps=1e-05, momentum=0.1, affine=True, track_running_stats=True)
      (relu): ReLU(inplace)
    )
    (conv2_4): Conv2d(
      (conv1): Conv2d(128, 128, kernel_size=(3, 3), stride=(1, 1), padding=(1, 1))
      (bn1): BatchNorm2d(128, eps=1e-05, momentum=0.1, affine=True, track_running_stats=True)
      (relu): ReLU(inplace)
    )
    (conv2_5): Conv2d(
      (conv1): Conv2d(128, 128, kernel_size=(3, 3), stride=(1, 1), padding=(1, 1))
      (bn1): BatchNorm2d(128, eps=1e-05, momentum=0.1, affine=True, track_running_stats=True)
      (relu): ReLU(inplace)
    )
    (conv3_1): Conv2d(
      (conv1): Conv2d(128, 256, kernel_size=(3, 3), stride=(2, 2), padding=(1, 1))
      (bn1): BatchNorm2d(256, eps=1e-05, momentum=0.1, affine=True, track_running_stats=True)
      (relu): ReLU(inplace)
    )
    (conv3_2): Conv2d(
      (conv1): Conv2d(256, 256, kernel_size=(3, 3), stride=(1, 1), padding=(1, 1))
      (bn1): BatchNorm2d(256, eps=1e-05, momentum=0.1, affine=True, track_running_stats=True)
      (relu): ReLU(inplace)
    )
    (conv3_3): Conv2d(
      (conv1): Conv2d(256, 256, kernel_size=(3, 3), stride=(1, 1), padding=(1, 1))
      (bn1): BatchNorm2d(256, eps=1e-05, momentum=0.1, affine=True, track_running_stats=True)
      (relu): ReLU(inplace)
    )
    (conv3_4): Conv2d(
      (conv1): Conv2d(256, 256, kernel_size=(3, 3), stride=(1, 1), padding=(1, 1))
      (bn1): BatchNorm2d(256, eps=1e-05, momentum=0.1, affine=True, track_running_stats=True)
      (relu): ReLU(inplace)
    )
    (conv3_5): Conv2d(
      (conv1): Conv2d(256, 256, kernel_size=(3, 3), stride=(1, 1), padding=(1, 1))
      (bn1): BatchNorm2d(256, eps=1e-05, momentum=0.1, affine=True, track_running_stats=True)
      (relu): ReLU(inplace)
    )
    (deconv1): ConvTranspose2d(256, 256, kernel_size=(4, 4), stride=(4, 4), padding=(0, 1), output_padding=(0, 1))
    (deconv2): ConvTranspose2d(128, 256, kernel_size=(2, 2), stride=(2, 2), padding=(0, 1), output_padding=(0, 1))
    (deconv3): ConvTranspose2d(128, 256, kernel_size=(3, 3), stride=(1, 1), padding=(1, 1))
    (rpn_head): NaiveRpnHead(
      (conv3x3): Conv2d(768, 512, kernel_size=(3, 3), stride=(1, 1), padding=(1, 1))
      (relu3x3): ReLU(inplace)
      (conv_cls): Conv2d(512, 4, kernel_size=(1, 1), stride=(1, 1))
      (conv_loc): Conv2d(512, 14, kernel_size=(1, 1), stride=(1, 1))
    )
  )
)
2018-10-17 21:25:49,379 - INFO - train_val.py[:66] - build dataloader done
2018-10-17 21:25:49,485 - INFO - train_val.py[:75] - Voxelnet(
  (feature_learnig): feature_learning_network(
    (vfe1): VFE(
      (fcn1): FCN(
        (conv1): Conv2d(4, 16, kernel_size=(1, 1), stride=(1, 1))
        (bn1): BatchNorm2d(16, eps=1e-05, momentum=0.1, affine=True, track_running_stats=True)
        (relu): ReLU(inplace)
      )
    )
    (fcn1): FCN(
      (conv1): Conv2d(32, 128, kernel_size=(1, 1), stride=(1, 1))
      (bn1): BatchNorm2d(128, eps=1e-05, momentum=0.1, affine=True, track_running_stats=True)
      (relu): ReLU(inplace)
    )
  )
  (conv3d): Conv_Middle_layers(
    (conv1): Conv3d(
      (conv1): Conv3d(128, 64, kernel_size=(3, 3, 3), stride=(2, 1, 1), padding=(1, 1, 1))
      (bn1): BatchNorm3d(64, eps=1e-05, momentum=0.1, affine=True, track_running_stats=True)
      (relu): ReLU(inplace)
    )
    (conv2): Conv3d(
      (conv1): Conv3d(64, 64, kernel_size=(3, 3, 3), stride=(1, 1, 1), padding=(1, 1, 1))
      (bn1): BatchNorm3d(64, eps=1e-05, momentum=0.1, affine=True, track_running_stats=True)
      (relu): ReLU(inplace)
    )
    (conv3): Conv3d(
      (conv1): Conv3d(64, 64, kernel_size=(3, 3, 3), stride=(2, 1, 1), padding=(1, 1, 1))
      (bn1): BatchNorm3d(64, eps=1e-05, momentum=0.1, affine=True, track_running_stats=True)
      (relu): ReLU(inplace)
    )
  )
  (_rpn): RPN(
    (conv1_1): Conv2d(
      (conv1): Conv2d(64, 128, kernel_size=(3, 3), stride=(2, 2), padding=(1, 1))
      (bn1): BatchNorm2d(128, eps=1e-05, momentum=0.1, affine=True, track_running_stats=True)
      (relu): ReLU(inplace)
    )
    (conv1_2): Conv2d(
      (conv1): Conv2d(128, 128, kernel_size=(3, 3), stride=(1, 1), padding=(1, 1))
      (bn1): BatchNorm2d(128, eps=1e-05, momentum=0.1, affine=True, track_running_stats=True)
      (relu): ReLU(inplace)
    )
    (conv1_3): Conv2d(
      (conv1): Conv2d(128, 128, kernel_size=(3, 3), stride=(1, 1), padding=(1, 1))
      (bn1): BatchNorm2d(128, eps=1e-05, momentum=0.1, affine=True, track_running_stats=True)
      (relu): ReLU(inplace)
    )
    (conv1_4): Conv2d(
      (conv1): Conv2d(128, 128, kernel_size=(3, 3), stride=(1, 1), padding=(1, 1))
      (bn1): BatchNorm2d(128, eps=1e-05, momentum=0.1, affine=True, track_running_stats=True)
      (relu): ReLU(inplace)
    )
    (conv2_1): Conv2d(
      (conv1): Conv2d(128, 128, kernel_size=(3, 3), stride=(2, 2), padding=(1, 1))
      (bn1): BatchNorm2d(128, eps=1e-05, momentum=0.1, affine=True, track_running_stats=True)
      (relu): ReLU(inplace)
    )
    (conv2_2): Conv2d(
      (conv1): Conv2d(128, 128, kernel_size=(3, 3), stride=(1, 1), padding=(1, 1))
      (bn1): BatchNorm2d(128, eps=1e-05, momentum=0.1, affine=True, track_running_stats=True)
      (relu): ReLU(inplace)
    )
    (conv2_3): Conv2d(
      (conv1): Conv2d(128, 128, kernel_size=(3, 3), stride=(1, 1), padding=(1, 1))
      (bn1): BatchNorm2d(128, eps=1e-05, momentum=0.1, affine=True, track_running_stats=True)
      (relu): ReLU(inplace)
    )
    (conv2_4): Conv2d(
      (conv1): Conv2d(128, 128, kernel_size=(3, 3), stride=(1, 1), padding=(1, 1))
      (bn1): BatchNorm2d(128, eps=1e-05, momentum=0.1, affine=True, track_running_stats=True)
      (relu): ReLU(inplace)
    )
    (conv2_5): Conv2d(
      (conv1): Conv2d(128, 128, kernel_size=(3, 3), stride=(1, 1), padding=(1, 1))
      (bn1): BatchNorm2d(128, eps=1e-05, momentum=0.1, affine=True, track_running_stats=True)
      (relu): ReLU(inplace)
    )
    (conv3_1): Conv2d(
      (conv1): Conv2d(128, 256, kernel_size=(3, 3), stride=(2, 2), padding=(1, 1))
      (bn1): BatchNorm2d(256, eps=1e-05, momentum=0.1, affine=True, track_running_stats=True)
      (relu): ReLU(inplace)
    )
    (conv3_2): Conv2d(
      (conv1): Conv2d(256, 256, kernel_size=(3, 3), stride=(1, 1), padding=(1, 1))
      (bn1): BatchNorm2d(256, eps=1e-05, momentum=0.1, affine=True, track_running_stats=True)
      (relu): ReLU(inplace)
    )
    (conv3_3): Conv2d(
      (conv1): Conv2d(256, 256, kernel_size=(3, 3), stride=(1, 1), padding=(1, 1))
      (bn1): BatchNorm2d(256, eps=1e-05, momentum=0.1, affine=True, track_running_stats=True)
      (relu): ReLU(inplace)
    )
    (conv3_4): Conv2d(
      (conv1): Conv2d(256, 256, kernel_size=(3, 3), stride=(1, 1), padding=(1, 1))
      (bn1): BatchNorm2d(256, eps=1e-05, momentum=0.1, affine=True, track_running_stats=True)
      (relu): ReLU(inplace)
    )
    (conv3_5): Conv2d(
      (conv1): Conv2d(256, 256, kernel_size=(3, 3), stride=(1, 1), padding=(1, 1))
      (bn1): BatchNorm2d(256, eps=1e-05, momentum=0.1, affine=True, track_running_stats=True)
      (relu): ReLU(inplace)
    )
    (deconv1): ConvTranspose2d(256, 256, kernel_size=(4, 4), stride=(4, 4), padding=(0, 1), output_padding=(0, 1))
    (deconv2): ConvTranspose2d(128, 256, kernel_size=(2, 2), stride=(2, 2), padding=(0, 1), output_padding=(0, 1))
    (deconv3): ConvTranspose2d(128, 256, kernel_size=(3, 3), stride=(1, 1), padding=(1, 1))
    (rpn_head): NaiveRpnHead(
      (conv3x3): Conv2d(768, 512, kernel_size=(3, 3), stride=(1, 1), padding=(1, 1))
      (relu3x3): ReLU(inplace)
      (conv_cls): Conv2d(512, 4, kernel_size=(1, 1), stride=(1, 1))
      (conv_loc): Conv2d(512, 14, kernel_size=(1, 1), stride=(1, 1))
    )
  )
)
2018-10-17 21:51:18,370 - INFO - train_val.py[:66] - build dataloader done
2018-10-17 21:51:18,480 - INFO - train_val.py[:75] - Voxelnet(
  (feature_learnig): feature_learning_network(
    (vfe1): VFE(
      (fcn1): FCN(
        (conv1): Conv2d(4, 16, kernel_size=(1, 1), stride=(1, 1))
        (bn1): BatchNorm2d(16, eps=1e-05, momentum=0.1, affine=True, track_running_stats=True)
        (relu): ReLU(inplace)
      )
    )
    (fcn1): FCN(
      (conv1): Conv2d(32, 128, kernel_size=(1, 1), stride=(1, 1))
      (bn1): BatchNorm2d(128, eps=1e-05, momentum=0.1, affine=True, track_running_stats=True)
      (relu): ReLU(inplace)
    )
  )
  (conv3d): Conv_Middle_layers(
    (conv1): Conv3d(
      (conv1): Conv3d(128, 64, kernel_size=(3, 3, 3), stride=(2, 1, 1), padding=(1, 1, 1))
      (bn1): BatchNorm3d(64, eps=1e-05, momentum=0.1, affine=True, track_running_stats=True)
      (relu): ReLU(inplace)
    )
    (conv2): Conv3d(
      (conv1): Conv3d(64, 64, kernel_size=(3, 3, 3), stride=(1, 1, 1), padding=(1, 1, 1))
      (bn1): BatchNorm3d(64, eps=1e-05, momentum=0.1, affine=True, track_running_stats=True)
      (relu): ReLU(inplace)
    )
    (conv3): Conv3d(
      (conv1): Conv3d(64, 64, kernel_size=(3, 3, 3), stride=(2, 1, 1), padding=(1, 1, 1))
      (bn1): BatchNorm3d(64, eps=1e-05, momentum=0.1, affine=True, track_running_stats=True)
      (relu): ReLU(inplace)
    )
  )
  (_rpn): RPN(
    (conv1_1): Conv2d(
      (conv1): Conv2d(64, 128, kernel_size=(3, 3), stride=(2, 2), padding=(1, 1))
      (bn1): BatchNorm2d(128, eps=1e-05, momentum=0.1, affine=True, track_running_stats=True)
      (relu): ReLU(inplace)
    )
    (conv1_2): Conv2d(
      (conv1): Conv2d(128, 128, kernel_size=(3, 3), stride=(1, 1), padding=(1, 1))
      (bn1): BatchNorm2d(128, eps=1e-05, momentum=0.1, affine=True, track_running_stats=True)
      (relu): ReLU(inplace)
    )
    (conv1_3): Conv2d(
      (conv1): Conv2d(128, 128, kernel_size=(3, 3), stride=(1, 1), padding=(1, 1))
      (bn1): BatchNorm2d(128, eps=1e-05, momentum=0.1, affine=True, track_running_stats=True)
      (relu): ReLU(inplace)
    )
    (conv1_4): Conv2d(
      (conv1): Conv2d(128, 128, kernel_size=(3, 3), stride=(1, 1), padding=(1, 1))
      (bn1): BatchNorm2d(128, eps=1e-05, momentum=0.1, affine=True, track_running_stats=True)
      (relu): ReLU(inplace)
    )
    (conv2_1): Conv2d(
      (conv1): Conv2d(128, 128, kernel_size=(3, 3), stride=(2, 2), padding=(1, 1))
      (bn1): BatchNorm2d(128, eps=1e-05, momentum=0.1, affine=True, track_running_stats=True)
      (relu): ReLU(inplace)
    )
    (conv2_2): Conv2d(
      (conv1): Conv2d(128, 128, kernel_size=(3, 3), stride=(1, 1), padding=(1, 1))
      (bn1): BatchNorm2d(128, eps=1e-05, momentum=0.1, affine=True, track_running_stats=True)
      (relu): ReLU(inplace)
    )
    (conv2_3): Conv2d(
      (conv1): Conv2d(128, 128, kernel_size=(3, 3), stride=(1, 1), padding=(1, 1))
      (bn1): BatchNorm2d(128, eps=1e-05, momentum=0.1, affine=True, track_running_stats=True)
      (relu): ReLU(inplace)
    )
    (conv2_4): Conv2d(
      (conv1): Conv2d(128, 128, kernel_size=(3, 3), stride=(1, 1), padding=(1, 1))
      (bn1): BatchNorm2d(128, eps=1e-05, momentum=0.1, affine=True, track_running_stats=True)
      (relu): ReLU(inplace)
    )
    (conv2_5): Conv2d(
      (conv1): Conv2d(128, 128, kernel_size=(3, 3), stride=(1, 1), padding=(1, 1))
      (bn1): BatchNorm2d(128, eps=1e-05, momentum=0.1, affine=True, track_running_stats=True)
      (relu): ReLU(inplace)
    )
    (conv3_1): Conv2d(
      (conv1): Conv2d(128, 256, kernel_size=(3, 3), stride=(2, 2), padding=(1, 1))
      (bn1): BatchNorm2d(256, eps=1e-05, momentum=0.1, affine=True, track_running_stats=True)
      (relu): ReLU(inplace)
    )
    (conv3_2): Conv2d(
      (conv1): Conv2d(256, 256, kernel_size=(3, 3), stride=(1, 1), padding=(1, 1))
      (bn1): BatchNorm2d(256, eps=1e-05, momentum=0.1, affine=True, track_running_stats=True)
      (relu): ReLU(inplace)
    )
    (conv3_3): Conv2d(
      (conv1): Conv2d(256, 256, kernel_size=(3, 3), stride=(1, 1), padding=(1, 1))
      (bn1): BatchNorm2d(256, eps=1e-05, momentum=0.1, affine=True, track_running_stats=True)
      (relu): ReLU(inplace)
    )
    (conv3_4): Conv2d(
      (conv1): Conv2d(256, 256, kernel_size=(3, 3), stride=(1, 1), padding=(1, 1))
      (bn1): BatchNorm2d(256, eps=1e-05, momentum=0.1, affine=True, track_running_stats=True)
      (relu): ReLU(inplace)
    )
    (conv3_5): Conv2d(
      (conv1): Conv2d(256, 256, kernel_size=(3, 3), stride=(1, 1), padding=(1, 1))
      (bn1): BatchNorm2d(256, eps=1e-05, momentum=0.1, affine=True, track_running_stats=True)
      (relu): ReLU(inplace)
    )
    (deconv1): ConvTranspose2d(256, 256, kernel_size=(4, 4), stride=(4, 4), padding=(0, 1), output_padding=(0, 1))
    (deconv2): ConvTranspose2d(128, 256, kernel_size=(2, 2), stride=(2, 2), padding=(0, 1), output_padding=(0, 1))
    (deconv3): ConvTranspose2d(128, 256, kernel_size=(3, 3), stride=(1, 1), padding=(1, 1))
    (rpn_head): NaiveRpnHead(
      (conv3x3): Conv2d(768, 512, kernel_size=(3, 3), stride=(1, 1), padding=(1, 1))
      (relu3x3): ReLU(inplace)
      (conv_cls): Conv2d(512, 4, kernel_size=(1, 1), stride=(1, 1))
      (conv_loc): Conv2d(512, 14, kernel_size=(1, 1), stride=(1, 1))
    )
  )
)
2018-10-17 21:52:26,505 - INFO - train_val.py[:66] - build dataloader done
2018-10-17 21:52:26,622 - INFO - train_val.py[:75] - Voxelnet(
  (feature_learnig): feature_learning_network(
    (vfe1): VFE(
      (fcn1): FCN(
        (conv1): Conv2d(4, 16, kernel_size=(1, 1), stride=(1, 1))
        (bn1): BatchNorm2d(16, eps=1e-05, momentum=0.1, affine=True, track_running_stats=True)
        (relu): ReLU(inplace)
      )
    )
    (fcn1): FCN(
      (conv1): Conv2d(32, 128, kernel_size=(1, 1), stride=(1, 1))
      (bn1): BatchNorm2d(128, eps=1e-05, momentum=0.1, affine=True, track_running_stats=True)
      (relu): ReLU(inplace)
    )
  )
  (conv3d): Conv_Middle_layers(
    (conv1): Conv3d(
      (conv1): Conv3d(128, 64, kernel_size=(3, 3, 3), stride=(2, 1, 1), padding=(1, 1, 1))
      (bn1): BatchNorm3d(64, eps=1e-05, momentum=0.1, affine=True, track_running_stats=True)
      (relu): ReLU(inplace)
    )
    (conv2): Conv3d(
      (conv1): Conv3d(64, 64, kernel_size=(3, 3, 3), stride=(1, 1, 1), padding=(1, 1, 1))
      (bn1): BatchNorm3d(64, eps=1e-05, momentum=0.1, affine=True, track_running_stats=True)
      (relu): ReLU(inplace)
    )
    (conv3): Conv3d(
      (conv1): Conv3d(64, 64, kernel_size=(3, 3, 3), stride=(2, 1, 1), padding=(1, 1, 1))
      (bn1): BatchNorm3d(64, eps=1e-05, momentum=0.1, affine=True, track_running_stats=True)
      (relu): ReLU(inplace)
    )
  )
  (_rpn): RPN(
    (conv1_1): Conv2d(
      (conv1): Conv2d(64, 128, kernel_size=(3, 3), stride=(2, 2), padding=(1, 1))
      (bn1): BatchNorm2d(128, eps=1e-05, momentum=0.1, affine=True, track_running_stats=True)
      (relu): ReLU(inplace)
    )
    (conv1_2): Conv2d(
      (conv1): Conv2d(128, 128, kernel_size=(3, 3), stride=(1, 1), padding=(1, 1))
      (bn1): BatchNorm2d(128, eps=1e-05, momentum=0.1, affine=True, track_running_stats=True)
      (relu): ReLU(inplace)
    )
    (conv1_3): Conv2d(
      (conv1): Conv2d(128, 128, kernel_size=(3, 3), stride=(1, 1), padding=(1, 1))
      (bn1): BatchNorm2d(128, eps=1e-05, momentum=0.1, affine=True, track_running_stats=True)
      (relu): ReLU(inplace)
    )
    (conv1_4): Conv2d(
      (conv1): Conv2d(128, 128, kernel_size=(3, 3), stride=(1, 1), padding=(1, 1))
      (bn1): BatchNorm2d(128, eps=1e-05, momentum=0.1, affine=True, track_running_stats=True)
      (relu): ReLU(inplace)
    )
    (conv2_1): Conv2d(
      (conv1): Conv2d(128, 128, kernel_size=(3, 3), stride=(2, 2), padding=(1, 1))
      (bn1): BatchNorm2d(128, eps=1e-05, momentum=0.1, affine=True, track_running_stats=True)
      (relu): ReLU(inplace)
    )
    (conv2_2): Conv2d(
      (conv1): Conv2d(128, 128, kernel_size=(3, 3), stride=(1, 1), padding=(1, 1))
      (bn1): BatchNorm2d(128, eps=1e-05, momentum=0.1, affine=True, track_running_stats=True)
      (relu): ReLU(inplace)
    )
    (conv2_3): Conv2d(
      (conv1): Conv2d(128, 128, kernel_size=(3, 3), stride=(1, 1), padding=(1, 1))
      (bn1): BatchNorm2d(128, eps=1e-05, momentum=0.1, affine=True, track_running_stats=True)
      (relu): ReLU(inplace)
    )
    (conv2_4): Conv2d(
      (conv1): Conv2d(128, 128, kernel_size=(3, 3), stride=(1, 1), padding=(1, 1))
      (bn1): BatchNorm2d(128, eps=1e-05, momentum=0.1, affine=True, track_running_stats=True)
      (relu): ReLU(inplace)
    )
    (conv2_5): Conv2d(
      (conv1): Conv2d(128, 128, kernel_size=(3, 3), stride=(1, 1), padding=(1, 1))
      (bn1): BatchNorm2d(128, eps=1e-05, momentum=0.1, affine=True, track_running_stats=True)
      (relu): ReLU(inplace)
    )
    (conv3_1): Conv2d(
      (conv1): Conv2d(128, 256, kernel_size=(3, 3), stride=(2, 2), padding=(1, 1))
      (bn1): BatchNorm2d(256, eps=1e-05, momentum=0.1, affine=True, track_running_stats=True)
      (relu): ReLU(inplace)
    )
    (conv3_2): Conv2d(
      (conv1): Conv2d(256, 256, kernel_size=(3, 3), stride=(1, 1), padding=(1, 1))
      (bn1): BatchNorm2d(256, eps=1e-05, momentum=0.1, affine=True, track_running_stats=True)
      (relu): ReLU(inplace)
    )
    (conv3_3): Conv2d(
      (conv1): Conv2d(256, 256, kernel_size=(3, 3), stride=(1, 1), padding=(1, 1))
      (bn1): BatchNorm2d(256, eps=1e-05, momentum=0.1, affine=True, track_running_stats=True)
      (relu): ReLU(inplace)
    )
    (conv3_4): Conv2d(
      (conv1): Conv2d(256, 256, kernel_size=(3, 3), stride=(1, 1), padding=(1, 1))
      (bn1): BatchNorm2d(256, eps=1e-05, momentum=0.1, affine=True, track_running_stats=True)
      (relu): ReLU(inplace)
    )
    (conv3_5): Conv2d(
      (conv1): Conv2d(256, 256, kernel_size=(3, 3), stride=(1, 1), padding=(1, 1))
      (bn1): BatchNorm2d(256, eps=1e-05, momentum=0.1, affine=True, track_running_stats=True)
      (relu): ReLU(inplace)
    )
    (deconv1): ConvTranspose2d(256, 256, kernel_size=(4, 4), stride=(4, 4), padding=(0, 1), output_padding=(0, 1))
    (deconv2): ConvTranspose2d(128, 256, kernel_size=(2, 2), stride=(2, 2), padding=(0, 1), output_padding=(0, 1))
    (deconv3): ConvTranspose2d(128, 256, kernel_size=(3, 3), stride=(1, 1), padding=(1, 1))
    (rpn_head): NaiveRpnHead(
      (conv3x3): Conv2d(768, 512, kernel_size=(3, 3), stride=(1, 1), padding=(1, 1))
      (relu3x3): ReLU(inplace)
      (conv_cls): Conv2d(512, 4, kernel_size=(1, 1), stride=(1, 1))
      (conv_loc): Conv2d(512, 14, kernel_size=(1, 1), stride=(1, 1))
    )
  )
)
2018-10-17 21:52:30,334 - DEBUG - voxelnet.py[:87] - voxel_with_points size: torch.Size([2, 4, 4, 80, 70, 2])
2018-10-17 21:52:30,335 - DEBUG - voxelnet.py[:88] - reshaped_voxel_with_points size: torch.Size([2, 4, 22400, 2])
2018-10-17 21:52:30,343 - DEBUG - voxelnet.py[:34] - point_wise_feature size: torch.Size([2, 16, 22400, 1])
2018-10-17 21:52:30,346 - DEBUG - voxelnet.py[:36] - VFE size: torch.Size([2, 32, 22400, 2])
…
